Assets/NeuralNetworkModels/model_size2585_28_epochs17_batch12_seed23.onnx (onnx, 16960 bytes, 26 tensors)

fc.weight f4 [3, 8]
-0.284615 -0.33672678 -0.276829 -0.1919505 0.40062284 0.43464568 -0.38814297 -0.38957077
-0.32047248 -0.21202216 0.25834784 0.3821225 -0.14721678 -0.22372533 -0.12981814 0.1232401
0.4735557 0.3614009 -0.116955556 -0.31983584 -0.2976118 -0.12961447 0.49261564 -0.41161752
00000000: 0fb9 91be 7467 acbe 88bc 8dbe ac8e 44be
00000010: 701e cd3e e189 de3e adba c6be d275 c7be
00000020: f814 a4be 561c 59be 2b46 843e 8fa5 c33e
00000030: ffbf 16be 4118 65be 0cef 04be 4e65 fc3d
00000040: e575 f23e 8a09 b93e 6586 efbd 86c1 a3be
00000050: 9360 98be a8b9 04be 1e38 fc3e 88bf d2be

fc.bias f4 [3]
0.12277377 -0.29900995 -0.29469043
00000000: d070 fb3d d517 99be aae1 96be

onnx::Conv_116 f4 [2, 1, 3, 3]
-0.9352762 -2.373928 -1.174307 -1.0893123 4.0090575 -3.215672 -1.1820087 3.893097
1.4517913 -2.18392 0.8310463 -2.0533295 1.2461154 0.08392226 -0.4620889 -1.3895328
-1.6247723 -1.1661924
00000000: 436e 6fbf 70ee 17c0 b14f 96bf 966e 8bbf
00000010: 334a 8040 92cd 4dc0 104c 97bf 8028 7940
00000020: 4cd4 b93f 58c5 0bc0 73bf 543f c069 03c0
00000030: b680 9f3f 6fdf ab3d eb96 ecbe 36dc b1bf
00000040: 8af8 cfbf cb45 95bf

onnx::Conv_117 f4 [2]
0.0752825 0.25455728
00000000: b62d 9a3d 5555 823e

onnx::Conv_119 f4 [2, 2, 3, 3]
-0.10477263 -0.40787068 0.10797366 -0.62706274 -0.27309132 -0.4671993 0.19206187 -0.5702529
0.7249713 0.66125935 0.86147285 -0.2670839 0.10321986 0.08800065 -0.24535277 0.2549001
0.20669514 -0.6346014 -0.04473803 -0.7851006 0.41062573 0.5125599 0.120962314 -0.75435936
-0.47523907 0.48680967 -0.36937752 0.3560892 -0.45354724 0.0469242 -0.5973075 -0.7479554
-0.49163944 -0.20741902 1.05695 1.0399406
00000000: 0893 d6bd 6dd4 d0be 4b21 dd3d 2f87 20bf
00000010: a0d2 8bbe bf34 efbe deab 443e 18fc 11bf
00000020: b897 393f 4b48 293f 7c89 5c3f 39bf 88be
00000030: ef64 d33d af39 b43d c23d 7bbe 4482 823e
00000040: e4a7 533e 3d75 22bf 393f 37bd 5afc 48bf
00000050: 893d d23e 2037 033f 17bb f73d b21d 41bf
00000060: 8952 f3be 1e3f f93e 0d1f bdbe 5351 b63e
00000070: 5837 e8be 9733 403d 25e9 18bf 017a 3fbf
00000080: 2ab8 fbbe a765 54be 234a 873f c61c 853f

onnx::Conv_120 f4 [2]
0.043855023 0.23425591
00000000: 53a1 333d c8e0 6f3e

onnx::Conv_122 f4 [2, 2, 3, 3]
0.32812533 0.65052307 0.3246247 -0.49884474 0.5027687 -0.02524831 -0.7453068 -0.071786776
0.52413553 -0.09082954 -0.08048334 0.3439085 0.294712 -0.7041472 -0.78495616 0.4580718
0.5890413 -0.20501947 0.35350743 0.20725507 0.44364998 0.2887493 0.07698016 0.40536904
-0.2531191 -0.14968231 0.21411452 0.24322787 -0.4076738 0.09813139 0.46395376 0.5394725
0.4566017 0.24645714 0.099289656 -0.32266533
00000000: 0b00 a83e ae88 263f 3535 a63e 9468 ffbe
00000010: 73b5 003f 8bd5 cebc 6dcc 3ebf f204 93bd
00000020: bf2d 063f d604 babd 73d4 a4bd c614 b03e
00000030: 7ee4 963e fe42 34bf e3f2 48bf 6388 ea3e
00000040: 69cb 163f a0f0 51be edfe b43e ac3a 543e
00000050: 1726 e33e f3d6 933e c6a7 9d3d 888c cf3e
00000060: d498 81be 5246 19be d640 5b3e ba10 793e
00000070: 9fba d0be 1cf9 c83d 598b ed3e df1a 0a3f
00000080: b3c7 e93e 435f 7c3e 6058 cb3d 6434 a5be

onnx::Conv_123 f4 [2]
-0.20905235 -0.7885144
00000000: d211 56be 14dc 49bf

onnx::Conv_125 f4 [4, 2, 3, 3]
0.051639814 -0.13364589 0.06686359 -0.29758522 0.040247396 -0.036735617 0.1657202 -0.24916911
0.1861606 0.13862668 0.26201233 0.341513 0.001367928 -0.14810114 -0.23543654 -0.10032831
0.28889993 0.37956977 -0.2899248 -0.012277176 -0.32073614 -0.073010124 -0.3281065 -0.23160875
-0.52994514 0.021127615 0.2305506 0.18235812 -0.26414162 0.3738532 0.60231215 0.56700724
-0.46723586 -0.09517643 0.09509093 0.06546997 -0.22725531 0.2157124 0.19996354 0.025898693
0.029332634 0.14028239 -0.21719895 -0.20431684 -0.21066391 0.24939527 0.2749301 0.13021018
-0.22726206 0.07700388 0.2038863 -0.3154115 -0.30652845 -0.2115852 -0.18902543 -0.16565222
-0.32916373 -0.2519494 0.22354028 -0.019190902 -0.025928201 -0.20618777 -0.12079199 -0.0070603215
0.06574836 0.15514226 -0.054734133 -0.27731347 0.16351391 -0.20367911 -0.08341832 -0.22245795
00000000: 4584 533d 78da 08be c7ef 883d 175d 98be
00000010: 74da 243d 1678 16bd 8eb2 293e 3026 7fbe
00000020: e2a0 3e3e 27f4 0d3e 7b26 863e cbda ae3e
00000030: 0c4c b33a d3a7 17be 4716 71be ee78 cdbd
00000040: b1ea 933e f856 c23e 0671 94be 3526 49bc
00000050: 8737 a4be 5586 95bd 93fd a7be d82a 6dbe
00000060: 7caa 07bf d213 ad3c 7515 6c3e 16bc 3a3e
00000070: 923d 87be b069 bf3e 2131 1a3f 6327 113f
00000080: 8a39 efbe dceb c2bd 09bf c23d 1f15 863d
00000090: 9eb5 68be b6e3 5c3e 3ec3 4c3e 7f29 d43c
000000a0: fe4a f03c 30a6 0f3e 6769 5ebe 6f38 51be
000000b0: 48b8 57be 7961 7f3e a3c3 8c3e d155 053e
000000c0: 63b7 68be 36b4 9d3d 92c7 503e 9e7d a1be
000000d0: 4cf1 9cbe caa9 58be e28f 41be bca0 29be
000000e0: 2688 a8be 83ff 80be bee7 643e 3d36 9dbc
000000f0: 6167 d4bc e322 53be ca61 f7bd 455a e7bb
00000100: 13a7 863d 9ddd 1e3e e630 60bd 08fc 8dbe
00000110: 3170 273e 4291 50be 39d7 aabd 04cc 63be

onnx::Conv_126 f4 [4]
-0.4401217 0.10679983 0.13332997 0.78451294
00000000: a257 e1be dfb9 da3d a787 083e d7d5 483f

onnx::Conv_128 f4 [4, 4, 3, 3]
-0.07577987 0.3014636 0.32406628 -0.06918954 -0.03461937 -0.21753196 0.32936755 0.16856316
0.4564363 0.050301686 0.34417647 0.29705244 -0.011753492 -0.31518772 0.037593525 0.26005012
0.059878796 0.07288454 0.48937166 -0.1397534 0.16586767 0.2647718 -0.47471723 -0.2505655
-0.19813097 -0.0781222 0.008246969 0.4932133 0.192558 -0.2999861 0.4123935 0.19318084
-0.21557915 0.30468267 0.28614128 0.16093057 0.22782695 0.13537437 0.07307513 0.15491928
-0.0069386023 -0.17660843 0.08622898 0.17953894 0.06418166 -0.073275425 0.017555583 0.08403464
0.28566924 0.079878025 -0.026078569 -0.13529512 0.28110644 0.058969863 -0.11621493 -0.17981486
0.38127902 0.19992316 -0.3099017 -0.32125878 0.2507934 0.27898914 0.22926094 -0.08554096
0.1114616 -0.036923647 -0.1146663 -0.0790298 0.103044815 -0.15561298 -0.20781875 -0.34580916
-0.29977384 0.47354797 0.3650062 -0.5842016 -0.4367953 0.09698272 0.042375244 0.22207108
0.25444984 0.3162518 0.10787164 0.04827776 -0.10506358 -0.5064199 -0.33768567 -0.47585428
0.26752624 0.33915615 0.013984369 0.1184492 0.12614286 0.49176183 -0.35427967 -0.3649253
0.06765826 -0.64865315 0.2974004 -0.3812217 -0.28595972 -0.23779736 -0.35509402 0.08844278
-0.22822411 0.22660485 0.4168263 0.05040024 0.8050687 -0.6648891 0.089504406 -0.05811107
-0.38283235 0.3680215 0.4676242 -0.13035858 -0.09974461 0.49096525 -0.064500876 0.34487352
0.14044452 -0.7663461 -0.26321167 0.056430966 0.19824944 -0.30217722 0.19898474 -0.5082319
-0.14796832 0.5990257 -0.13036251 -0.3411047 0.5280194 0.15026774 0.21043375 -0.44786525
0.4780797 -0.3847446 0.68026114 -0.51722157 0.7872136 0.70413685 -0.056930777 0.28262648
00000000: 7a32 9bbd 7059 9a3e 04ec a53e 3fb3 8dbd
00000010: 0acd 0dbd b3c0 5ebe dda2 a83e d29b 2c3e
00000020: 05b2 e93e 2409 4e3d e637 b03e 4217 983e
00000030: b891 40bc 4960 a1be abfb 193d 4a25 853e
00000040: 7843 753d 7d44 953d ec8e fa3e 841b 0fbe
00000050: 37d9 293e 2b90 873e 230e f3be 1f4a 80be
00000060: d8e2 4abe 88fe 9fbd 4c1e 073c 7486 fc3e
00000070: ed2d 453e c797 99be 3e25 d33e 33d1 453e
00000080: c8c0 5cbe 5eff 9b3e 1c81 923e fcca 243e
00000090: 784b 693e 949f 0a3e 6aa8 953d 29a3 1e3e
000000a0: 375d e3bb d7d8 34be d298 b03d 0ed9 373e
000000b0: ad71 833d 6d11 96bd bad0 8f3c 5a1a ac3d
000000c0: 3d43 923e 1797 a33d b9a2 d5bc ce8a 0abe
000000d0: 2fed 8f3e 628a 713d 1802 eebd 6321 38be
000000e0: 0137 c33e a8b8 4c3e 70ab 9ebe 087c a4be
000000f0: fe67 803e aad7 8e3e 61c3 6a3e 1930 afbd
00000100: fb45 e43d 403d 17bd 2ad6 eabd 60da a1bd
00000110: 2909 d33d 0259 1fbe 70ce 54be e60d b1be
00000120: f57b 99be e174 f23e 18e2 ba3e 3c8e 15bf
00000130: a2a3 dfbe e09e c63d aa91 2d3d 9a66 633e
00000140: 4047 823e c2eb a13e ceeb dc3d e7be 453d
00000150: 932b d7bd bca4 01bf 23e5 acbe 2ca3 f3be
00000160: 33f9 883e e0a5 ad3e b21e 653c 7f95 f23d
00000170: 982b 013e 35c8 fb3e 2564 b5be 7dd7 babe
00000180: 6a90 8a3d 220e 26bf dd44 983e 7e2f c3be
00000190: 5069 92be 2781 73be e2ce b5be 7d21 b53d
000001a0: 95b3 69be 1a0b 683e 426a d53e 7b70 4e3d
000001b0: fb18 4e3f 2c36 2abf 164e b73d e005 6ebd
000001c0: 9a02 c4be 506d bc3e 706c ef3e b87c 05be
000001d0: e746 ccbd cc5f fb3e 0919 84bd 4393 b03e
000001e0: b0d0 0f3e 422f 44bf aec3 86be 2824 673d
000001f0: e701 4b3e f9b6 9abe a8c2 4b3e 7c1b 02bf
00000200: 0285 17be c059 193f c07d 05be 46a5 aebe
00000210: 482c 073f c9df 193e f27b 573e 984e e5be
00000220: ddc6 f43e 3ffd c4be 9825 2e3f a268 04bf
00000230: d586 493f 5042 343f 3f30 69bd 6bb4 903e

onnx::Conv_129 f4 [4]
-1.088643 -0.059191152 0.37614793 -0.8319894
00000000: a758 8bbf 6c72 72bd 7696 c03e 42fd 54bf

onnx::Conv_131 f4 [4, 2, 1, 1]
-0.4591464 -0.5274521 0.45045215 0.64734584 0.6034689 -0.97627455 -0.93469656 0.8477325
00000000: 3d15 ebbe 1a07 07bf aaa1 e63e 75b8 253f
00000010: f07c 1a3f 21ed 79bf 4648 6fbf ff04 593f

onnx::Conv_132 f4 [4]
0.59027356 -0.51044345 0.19622608 -0.007923447
00000000: 2b1c 173f 6cac 02bf 7def 483e 58d1 01bc

onnx::Conv_134 f4 [8, 4, 3, 3]
0.035317603 -0.013996887 -0.09612312 -0.16399567 0.10846529 -0.117845416 -0.15363656 0.022308806
-0.05977084 -0.112335004 -0.13213728 0.14679016 -0.021446528 -0.17332092 -0.13182127 0.05205455
-0.100214876 -0.08843438 -0.14139614 -0.16024716 -0.039852478 -0.0071850047 -0.11985297 0.06173233
0.07786592 -0.030535981 0.087225884 -0.023451922 -0.022398086 -0.09961165 -0.12528329 -0.14294595
-0.13567494 -0.1548213 0.060600176 -0.023329621 0.34775463 -0.16295724 -0.55013376 -0.20933402
-0.20003523 -0.1718516 0.15971527 -0.38928586 0.33550307 -0.38420308 0.48917705 -0.15893765
-0.17320286 0.44040135 0.103986755 -0.46559167 0.12628415 0.24790707 0.28058872 -0.06856529
0.079697415 0.20009471 0.2102814 -0.2849883 -0.10740146 0.20771211 0.2932031 -0.35590082
0.07735378 0.16171838 -0.051116876 -0.34605286 -0.16372609 0.030840864 0.04936577 -0.051076706
0.09632674 -0.07588031 -0.26744518 -0.1330324 -0.2861381 -0.0026269178 0.101200685 -0.06130452
-0.12343173 0.31742343 0.1589126 -0.1370694 0.21689704 0.102987766 -0.15983962 -0.12258943
0.07715343 -0.08695424 -0.26378283 -0.20826872 -0.15490583 -0.40183648 -0.21460423 -0.019298427
0.14987928 -0.06136892 -0.20210832 -0.18526453 0.093653254 0.10350204 0.26325718 -0.12958322
-0.029887978 0.20404062 -0.024880392 0.15397458 0.37561652 -0.18214211 0.170678 0.03587247
-0.09835351 -0.03417825 -0.44053695 0.033658605 -0.40500128 -0.04077988 -0.45529974 -0.14448038
0.38839835 0.3188468 0.33236492 -0.091814816 -0.35881662 -0.22758129 0.48299608 0.20974135
0.1578172 -0.35293657 -0.22306526 0.19629194 0.1540826 0.018831685 0.16968398 -0.023247804
0.009699997 0.14999741 -0.29302466 -0.14565293 -0.2721167 -0.045972638 0.28375462 0.26544598
0.053832144 0.030794723 -0.25129372 0.11901885 0.10749053 0.18533938 0.007873038 0.17809162
0.08195881 0.2766975 0.18744706 0.047740202 -0.17087817 -0.050693013 0.05122941 -0.05121048
-0.114141405 -0.31741995 0.09825149 0.24934605 -0.09536407 0.20052615 0.17588353 -0.123468496
0.2290573 -0.19570059 0.03655476 0.056274824 -0.07321605 0.15279722 0.22365725 -0.041201957
0.16661263 0.13135144 0.22377422 -0.24246322 0.13286556 -0.024080938 -0.03834716 0.1281386
-0.035157118 0.0011006288 -0.14694491 -0.19149491 0.09429902 0.15824468 -0.08673949 0.04745322
0.21138453 0.041344613 -0.13685574 0.20353818 0.081741594 0.14754829 0.053458672 -0.121417634
0.06371382 0.121993855 -0.111060776 0.110496975 0.06081628 -0.03995767 0.035126116 0.07975717
-0.06278851 -0.14312145 0.01693427 -0.1083997 0.21641845 0.09369698 -0.09615862 -0.14294867
-0.2485549 -0.14920172 -0.37848407 0.07728973 -0.22588204 -0.1289136 -0.20018935 0.13672839
0.008303785 0.16723797 -0.17817734 0.21996602 -0.09145287 -0.12308993 0.29980603 -0.11981032
0.02481275 0.26433367 -0.15156078 -0.16413856 0.2311979 -0.12938105 0.32471776 -0.19526865
0.18443532 0.29766196 0.06254108 0.117674105 0.18932892 -0.14768438 0.13875769 -0.17530818
-0.08192374 -0.15839939 -0.085981086 0.0024896932 0.063276105 -0.17450474 -0.15876406 -0.15693414
00000000: 31a9 103d 3353 65bc 33dc c4bd 7bee 27be
00000010: 0d23 de3d f058 f1bd e752 1dbe f5c0 b63c
00000020: 45d2 74bd e50f e6bd ff4e 07be 2950 163e
00000030: a1b0 afbc 0a7b 31be 28fc 06be 2737 553d
00000040: 753d cdbd 161d b5bd 26ca 10be d517 24be
00000050: 5a3c 23bd 3070 ebbb 7975 f5bd 0adb 7c3d
00000060: 2b78 9f3d 9826 fabc 7ca3 b23d 3f1e c0bc
00000070: 317c b7bc 3101 ccbd 434a 00be 6c60 12be
00000080: 5fee 0abe 7a89 1ebe e437 783d c31d bfbc
00000090: e50c b23e 43de 26be 91d5 0cbf a85b 56be
000000a0: 09d6 4cbe def9 2fbe 668c 233e 7a50 c7be
000000b0: 0fc7 ab3e 44b6 c4be 6a75 fa3e 8dc0 22be
000000c0: 175c 31be 497c e13e 02f7 d43d 0862 eebe
000000d0: a250 013e 5adb 7d3e 53a9 8f3e f56b 8cbd
000000e0: 6638 a33d a1e5 4c3e 0254 573e fde9 91be
000000f0: 4cf5 dbbd 7cb2 543e b71e 963e a238 b6be
00000100: a96b 9e3d 8199 253e ee5f 51bd d72d b1be
00000110: d0a7 27be fba5 fc3c c333 4a3d cf35 51bd
00000120: f446 c53d 2367 9bbd 93ee 88be a539 08be
00000130: b180 92be 5e28 2cbb 4e42 cf3d 731a 7bbd
00000140: c6c9 fcbd 5385 a23e fcb9 223e ec5b 0cbe
00000150: 421a 5e3e 40eb d23d ffac 23be 2b10 fbbd
00000160: 9e02 9e3d 1115 b2bd 8b0e 87be 6544 55be
00000170: a29f 1ebe 83bd cdbe 36c1 5bbe bc17 9ebc
00000180: f479 193e fa5d 7bbd 7cf5 4ebe fcb5 3dbe
00000190: 47cd bf3d e1f8 d33d a5c9 863e 77b1 04be
000001a0: a2d7 f4bc 06f0 503e f7d1 cbbc 83ab 1d3e
000001b0: cf50 c03e 7683 3abe 37c6 2e3e 03ef 123d
000001c0: 916d c9bd 7efe 0bbd 0f8e e1be 9bdd 093d
000001d0: 545c cfbe ce08 27bd 0c1d e9be aaf2 13be
000001e0: 26dc c63e e33f a33e bc2b aa3e 6809 bcbd
000001f0: d0b6 b7be 120b 69be 434b f73e 70c6 563e
00000200: d59a 213e 1ab4 b4be 386b 64be c100 493e
00000210: d4c7 1d3e e844 9a3c a3c1 2d3e 2e72 bebc
00000220: bcec 1e3c ec98 193e 5407 96be 0b26 15be
00000230: e152 8bbe ce4d 3cbd 4948 913e 89e8 873e
00000240: 187f 5c3d 3745 fc3c 92a9 80be 28c0 f33d
00000250: ff23 dc3d 9bc9 3d3e eafd 003c a65d 363e
00000260: 05da a73d 4bab 8d3e 1ff2 3f3e 3b8b 433d
00000270: b0fa 2ebe 7aa3 4fbd eed5 513d 15c2 51bd
00000280: f8c2 e9bd de84 a2be 1438 c93d 9254 7f3e
00000290: 3d4e c3bd ba56 4d3e d01a 343e 0ddd fcbd
000002a0: ff8d 6a3e bc65 48be 72ba 153d 6e80 663d
000002b0: 4cf2 95bd e076 1c3e 6806 653e 62c3 28bd
000002c0: 809c 2a3e fe80 063e 1225 653e 4748 78be
000002d0: e90d 083e 6345 c5bc e911 1dbd c436 033e
000002e0: e900 10bd f942 903a ba78 16be 3e17 44be
000002f0: d81f c13d e50a 223e 79a4 b1bd 4f5e 423d
00000300: 3075 583e f858 293d e923 0cbe 506c 503e
00000310: 2368 a73d e616 173e 7bf7 5a3d cfa9 f8bd
00000320: 647c 823d ead7 f93d d573 e3bd 3d4c e23d
00000330: 7e1a 793d a7aa 23bd 67e0 0f3d ba57 a33d
00000340: 4397 80bd 6e8e 12be bdb9 8a3c a900 debd
00000350: cc9c 5d3e 34e4 bf3d d0ee c4bd 2361 12be
00000360: 2d85 7ebe 56c8 18be aac8 c1be 144a 9e3d
00000370: 9f4d 67be ed01 04be 70fe 4cbe 8702 0c3e
00000380: 990c 083c 6e40 2b3e 1f74 36be c63e 613e
00000390: a44b bbbd 9316 fcbd 2d80 993e 1d5f f5bd
000003a0: 1c44 cb3c be56 873e c032 1bbe f013 28be
000003b0: 24bf 6c3e 777c 04be 6841 a63e 81f4 47be
000003c0: 9ddc 3c3e 2667 983e 8a15 803d 1fff f03d
000003d0: 71df 413e 933a 17be 7f16 0e3e fd83 33be
000003e0: a2c7 a7bd 7333 22be da16 b0bd 1f2a 233b
000003f0: e796 813d 5fb1 32be 0c93 22be 58b3 20be

onnx::Conv_135 f4 [8]
1.0264999 0.024612743 0.5262781 0.20565517 -0.48792773 -0.44563368 -0.02703023 -0.1253961
00000000: 5964 833f aaa0 c93c 29ba 063f 4597 523e
00000010: aad1 f9be 192a e4be 806e ddbc d667 00be

onnx::Conv_137 f4 [8, 8, 3, 3]
-0.0011367763 -0.021444056 -0.47051096 -0.17514828 -0.38940856 -0.08320458 0.05241115 -0.11398655
0.15688471 0.27821404 -0.15437385 0.1602277 -0.13066176 0.21997412 0.29633737 0.2867951
0.17071614 0.042976573 -0.0031813085 -0.22220927 0.073094204 -0.048680663 0.17482468 0.21195368
-0.16146633 -0.13053462 -0.24167295 0.1453859 0.09910629 0.42886063 0.12454583 0.0945196
0.08275871 0.21332921 0.028573079 -0.11380357 -0.019935338 -0.031087482 0.14672373 -0.2726989
-0.35338604 -0.13552536 0.123780385 0.10299401 -0.19606042 -0.078062855 0.13523917 -0.17176546
-0.0023147648 -0.23605002 0.20021144 -0.08348921 -0.3584998 0.0884209 0.078607135 0.15943155
0.25243565 0.2379395 -0.26955804 0.20489222 -0.31326276 0.12630743 0.1960147 -0.03983849
-0.03399872 0.22799149 -0.14407106 -0.04778348 -0.18223241 0.19966744 -0.14835283 -0.11096076
0.19704142 -0.24433942 -0.12813063 0.2312592 -0.32683077 -0.15727895 0.12543996 0.0037253322
-0.089945264 0.1788144 0.006916933 -0.12973966 -0.08033207 -0.03590467 0.11035658 -0.030999186
-0.20854874 0.14249203 -0.44469637 -0.23656927 0.03463354 -0.24827652 0.23524104 -0.18053746
-0.35682142 -0.15930913 0.24662529 -0.013015527 0.06870056 -0.13084833 -0.0026862726 -0.15732545
0.21140833 -0.15201737 -0.14123788 -0.064182155 0.10139018 -0.2881687 0.13766973 -0.17406315
-0.08128933 0.03970724 -0.03337804 0.048161898 -0.22176446 0.10256735 0.028193586 -0.032682348
-0.3156082 -0.021389721 -0.15804233 -0.31361336 -0.055277612 0.067187905 -0.08698408 -0.16772854
0.33384255 -0.18376587 0.009768123 0.12389979 0.080559336 -0.26065382 0.18982592 -0.06949822
-0.1183688 0.2740841 0.025469987 0.23702441 0.10822241 0.020316206 -0.06997148 -0.25567144
0.2085332 0.26363668 0.029782018 0.053730212 0.03409313 0.3615659 0.3160003 0.40276974
0.056246325 0.049342982 0.15154128 0.20729394 0.16781257 0.041888643 0.10924237 0.1264182
-0.22068417 0.01852534 -0.13830908 0.10215425 0.09627471 0.10948301 -0.10401295 0.08537113
0.06469322 0.18142512 0.05609909 -0.034264926 -0.08420709 0.12322171 0.17615382 -0.33404756
-0.13578904 -0.08933814 0.005937349 -0.041719988 -0.03435019 -0.08712785 0.06675986 -0.057966188
-0.09619959 -0.2350781 -0.005360331 -0.13599609 -0.16500832 -0.1687392 0.047569733 -0.14649309
-0.039204277 -0.072978556 0.0078338245 -0.25485656 -0.24728316 0.047411192 0.17133673 -0.15614772
-0.21374284 -0.19779994 0.14920205 -0.11048152 -0.22832292 -0.18524882 -0.035152547 0.19384135
-0.0060892752 -0.08896292 -0.19673103 0.0029044123 0.038394142 0.045222197 -0.11234766 0.07976734
0.11655309 0.17682819 0.106477246 -0.3152398 0.028868748 -0.048059594 -0.14625193 -0.11694892
-0.0072199376 0.136618 -0.16932546 0.14222063 0.15666007 0.016689243 0.13683715 0.13932735
-0.06633391 0.13587749 0.06424004 -0.03677112 -0.17231755 -0.17694654 0.24086526 -0.27380016
0.21030873 -0.046749946 -0.26155573 0.013722807 -0.10835966 -0.071603626 0.15150598 -0.21255925
-0.22136484 0.07522728 0.03304022 -0.016525015 -0.16259539 -0.23464899 0.04678021 0.18163042
00000000: e2ff 94ba 72ab afbc d0e6 f0be 125a 33be
00000010: 8f60 c7be 2a67 aabd 13ad 563d c871 e9bd
00000020: 63a6 203e 1272 8e3e 2e14 1ebe bb12 243e
00000030: 32cc 05be e540 613e 88b9 973e cfd6 923e
00000040: 36d0 2e3e 3408 303d 807d 50bb d48a 63be
00000050: 6ab2 953d 6065 47bd 3e05 333e 630a 593e
00000060: 6e57 25be deaa 05be 1d79 77be 0be0 143e
00000070: 3df8 ca3d 9f93 db3e e211 ff3d 7e93 c13d
00000080: 667d a93d f972 5a3e 1712 ea3c d911 e9bd
00000090: 6f4f a3bc 2dab febc bf3e 163e 319f 8bbe
000000a0: 04ef b4be 29c7 0abe 9280 fd3d 86ee d23d
000000b0: 10c4 48be 6bdf 9fbd 237c 0a3e 49e3 2fbe
000000c0: 4fb3 17bb 19b7 71be 3a04 4d3e 64fc aabd
000000d0: 498d b7be 0416 b53d c7fc a03d 0642 233e
000000e0: 3f3f 813e 6aa6 733e 8303 8abe 44cf 513e
000000f0: fa63 a0be bc56 013e 14b8 483e af2d 23bd
00000100: 3e42 0bbd 9a76 693e 5d87 13be 9cb8 43bd
00000110: 229b 3abe 9f75 4c3e cee9 17be 653f e3bd
00000120: 3ac5 493e 1d34 7abe ad34 03be 36cf 6c3e
00000130: 5d56 a7be bc0d 21be 5573 003e b424 743b
00000140: 3935 b8bd 1f1b 373e 71a7 e23b 79da 04be
00000150: 2485 a4bd c610 13bd a102 e23d 01f2 fdbc
00000160: cd8d 55be 6ee9 113e 3eaf e3be 373f 72be
00000170: e6db 0d3d 333c 7ebe 07e3 703e d0de 38be
00000180: 4cb1 b6be ef21 23be 578b 7c3e 143f 55bc
00000190: e1b2 8c3d 1bfd 05be 2d0c 30bb ec19 21be
000001a0: 6d7b 583e 71aa 1bbe aaa0 10be ef71 83bd
000001b0: a8a5 cf3d d98a 93be 4bf9 0c3e 9c3d 32be
000001c0: 057b a6bd 0fa4 223d 69b7 08bd 6945 453d
000001d0: 3916 63be d50e d23d 3cf6 e63c eddd 05bd
000001e0: 6697 a1be 7f39 afbc d9d5 21be ee91 a0be
000001f0: c76a 62bd d099 893d b624 b2bd 08c1 2bbe
00000200: 69ed aa3e 1f2d 3cbe 7a0a 203c 2cbf fd3d
00000210: 4bfc a43d 6b74 85be ba61 423e 1555 8ebd
00000220: 576b f2bd c054 8c3e 6fa6 d03c 87b6 723e
00000230: b6a3 dd3d 2c6e a63c 354d 8fbd 5ee7 82be
00000240: ba89 553e 63fb 863e 6bf9 f33c 3614 5c3d
00000250: 3da5 0b3d 2a1f b93e cbca a13e d637 ce3e
00000260: 8c62 663d de1b 4a3d a32d 1b3e dd44 543e
00000270: 0fd7 2b3e 6d93 2b3d 77ba df3d c673 013e
00000280: 08fb 61be 74c2 973c e5a0 0dbe 3f36 d13d
00000290: ad2b c53d a138 e03d be04 d5bd 0fd7 ae3d
000002a0: e17d 843d 82c7 393e 29c8 653d 6159 0cbd
000002b0: c474 acbd aa5b fc3d ab61 343e 4808 abbe
000002c0: 480c 0bbe eaf6 b6bd 188e c23b 94e2 2abd
000002d0: c9b2 0cbd 1670 b2bd 65b9 883d f46d 6dbd
000002e0: 4a04 c5bd 50b8 70be b7a5 afbb 8f42 0bbe
000002f0: f1f7 28be f8c9 2cbe 7bd8 423d 4902 16be
00000300: aa94 20bd c875 95bd 7159 003c 8f7c 82be
00000310: cc37 7dbe 3d32 423d e572 2f3e 30e5 1fbe
00000320: 67df 5abe 118c 4abe 6cc8 183e 2344 e2bd
00000330: 7ccd 69be deb1 3dbe 1efc 0fbd 597e 463e
00000340: 8b88 c7bb 3132 b6bd dc73 49be f457 3e3b
00000350: 2d43 1d3d e93a 393d 8816 e6bd 0f5d a33d
00000360: 63b3 ee3d 7312 353e be10 da3d 1c67 a1be
00000370: 277e ec3c 23da 44bd 11c3 15be ea82 efbd
00000380: 3a95 ecbb 97e5 0b3e a763 2dbe 49a2 113e
00000390: 7f6b 203e e1b7 883c 0a1f 0c3e d4ab 0e3e
000003a0: 13da 87bd 7823 0b3e 4890 833d 509d 16bd
000003b0: 0374 30be 7931 35be 62a5 763e 892f 8cbe
000003c0: 2c5b 573e df7c 3fbd a2ea 85be a0d5 603c
000003d0: abeb ddbd eca4 92bd 6224 1b3e 22a9 59be
000003e0: 77ad 62be c310 9a3d 2f55 073d 785f 87bc
000003f0: 687f 26be d347 70be 9b9c 3f3d 53fd 393e

onnx::Conv_138 f4 [8]
0.15235882 0.8469891 -0.06565729 -0.1378513 0.031071514 -0.000904046 0.43773684 0.46156502
00000000: f303 1c3e 47d4 583f 5477 86bd e428 0dbe
00000010: b089 fe3c 80fd 6cba 0b1f e03e 4052 ec3e

onnx::Conv_140 f4 [8, 4, 1, 1]
1.2027397 -0.046184007 -0.49950093 0.41640943 -0.18611377 -0.5171197 -0.2969926 -0.09586779
0.5156409 0.4727186 0.4588453 -0.26871702 -0.509685 -0.2709328 -0.8150229 -0.23403762
0.08781012 -0.45773053 -0.092269376 -0.45515034 -0.15170252 -0.49471033 -0.25623176 -0.1647517
0.13760689 -0.2590266 -0.5568373 -0.7543902 -0.73452896 -0.5096623 0.4231783 0.36354244
00000000: 60f3 993f 712b 3dbd 96be ffbe 9e33 d53e
00000010: 9c94 3ebe f561 04bf 6a0f 98be 5556 c4bd
00000020: 0b01 043f 2c08 f23e c5ed ea3e 4795 89be
00000030: b77a 02bf b4b7 8abe 57a5 50bf 8fa7 6fbe
00000040: cbd5 b33d a85b eabe baf7 bcbd 7709 e9be
00000050: e857 1bbe ac4a fdbe cf30 83be abb4 28be
00000060: d2e8 0c3e 229f 84be e48c 0ebf b71f 41bf
00000070: 170a 3cbf 3a79 02bf d3aa d83e 3c22 ba3e

onnx::Conv_141 f4 [8]
-0.38222855 0.72494125 -0.76737183 0.921773 0.5649738 0.59465104 0.7561681 0.41683358
00000000: 76b3 c3be c095 393f 7b72 44bf 51f9 6b3f
00000010: 1fa2 103f 0d3b 183f 3c94 413f 366b d53e

onnx::Conv_143 f4 [8, 8, 3, 3]
-0.045441996 -0.067009 0.034696244 0.2788561 0.10749605 -0.16853061 0.08371294 0.18831764
-0.15643404 -0.09094938 -0.26401037 0.07332155 -0.11533172 -0.31890237 0.2024865 0.01358649
-0.2014063 -0.024062041 -0.122079074 0.13586755 0.036987096 0.28336608 -0.15790951 0.1614045
-0.01169655 -0.1814307 -0.10670836 -0.01339789 -0.05515314 0.12324021 0.1941062 -0.088332534
0.0369206 -0.108454116 0.012056596 -0.066759884 -0.15766194 0.10628529 -0.062155616 0.29435983
0.11420908 0.2585338 0.23021804 0.026990555 0.21137889 0.09504552 -0.2016459 -0.025689064
-0.22325742 -0.2812647 0.078087404 -0.20390394 0.103703685 0.08121473 0.15254362 -0.1927272
-0.12752761 0.11284752 -0.07832677 -0.19962913 -0.04920908 -0.09887216 0.05318374 -0.042751957
-0.21261859 -0.0071233464 0.25654712 -0.08892012 -0.03550774 0.12677385 -0.052086063 -0.019253729
0.10805618 -0.35480964 -0.11183231 -0.02991214 -0.22872789 -0.21031623 -0.17341752 -0.21260752
0.046208616 0.25951368 -0.32346535 0.10137507 0.31193852 -0.22812562 0.28579012 0.14414869
0.08115992 -0.046098888 -0.005484704 -0.06774491 0.03241085 0.13321112 0.09249505 0.24556479
0.068947434 0.33498725 0.15514633 -0.34027487 -0.12514378 -0.26230547 -0.061636943 0.2331232
0.33467403 0.07930468 0.028191373 0.05478003 -0.031936504 -0.091068625 -0.28039747 -0.07140846
-0.18670881 -0.30485284 0.27837193 -0.07544246 0.3388733 0.2123901 0.22723868 -0.15584727
0.09927133 -0.17463756 0.20778534 0.4762499 -0.04419173 0.1622494 -0.3903153 -0.3808528
0.17195067 0.04407985 0.05859363 0.2481193 0.0040613674 -0.1997187 -0.21972391 0.080696695
0.24793318 0.10294089 -0.081966564 -0.19055536 -0.06925821 0.09041423 0.1580674 -0.07349536
0.15511116 -0.04205347 -0.19047841 0.030612323 -0.0006726413 -0.009705588 0.14720613 0.17501567
0.046163265 -0.28209996 -0.1240175 -0.08625509 0.07566193 -0.13465135 0.056362238 0.118279144
-0.1979919 0.05837024 -0.23347558 -0.05939237 -0.012767139 0.05725744 -0.025997069 0.113469996
-0.09544664 -0.0992382 0.00044097987 0.12190679 0.19324759 0.061646517 -0.11558159 0.006397268
-0.13301843 0.1173598 0.15685758 0.23764756 0.10040862 0.03510689 0.024270331 0.25980383
0.07757049 0.19998735 -0.102922134 0.082381904 0.09934863 -0.21882327 -0.19300613 0.07824744
-0.20943406 -0.077863745 -0.058364797 0.08835284 -0.12603702 -0.043756317 -0.11773052 0.047018647
-0.022459036 0.029170439 -0.0613631 -0.18655916 -0.009161546 -0.031861242 0.0029111677 0.12356844
0.112068795 0.17947428 0.15143348 -0.04758718 0.18007499 0.1215835 0.03765353 0.010304916
0.07479053 0.042932514 -0.057699937 -0.070474416 0.14985059 -0.03424779 -0.06413559 0.27428362
0.051852487 0.26139677 -0.25964832 -0.2046959 0.01699684 -0.025966914 -0.16707063 0.22809601
0.25817597 0.08030395 0.097119816 0.23053035 -0.18687749 0.21749479 -0.05363284 0.056009684
0.07023171 0.18975382 0.09106644 0.17368552 0.20842797 0.069737874 -0.18954758 -0.09269573
-0.18547784 0.04399292 0.19078173 -0.15045418 0.15986912 0.2101859 0.22230126 -0.055833735
00000000: 6321 3abd 043c 89bd a61d 0e3d 3ac6 8e3e
00000010: e426 dc3d 4a93 2cbe b171 ab3d 57d6 403e
00000020: 3f30 20be ab43 babd 5e2c 87be 9c29 963d
00000030: 0933 ecbd 2c47 a3be 9f58 4f3e df99 5e3c
00000040: 743d 4ebe c21d c5bc 9804 fabd dd20 0b3e
00000050: c87f 173d 5c15 913e 08b3 21be 3947 253e
00000060: e3a2 3fbc f8c8 39be ea89 dabd d382 5bbc
00000070: 42e8 61bd 5d65 fc3d c7c3 463e b0e7 b4bd
00000080: 0e3a 173d 311d debd 0789 453c 68b9 88bd
00000090: 2272 21be 1aac d93d e396 7ebd 55b6 963e
000000a0: 73e6 e93d 8b5e 843e 47be 6b3e 4c1b dd3c
000000b0: b573 583e 3aa7 c23d 437c 4ebe df71 d2bc
000000c0: 989d 64be ed01 90be 4aec 9f3d 32cc 50be
000000d0: 9962 d43d e953 a63d 6534 1c3e 475a 45be
000000e0: 9996 02be 9a1c e73d c969 a0bd 946b 4cbe
000000f0: 768f 49bd 7d7d cabd 31d7 593d ad1c 2fbd
00000100: b0b8 59be f66a e9bb 255a 833e c01b b6bd
00000110: 9070 11bd 01d1 013e 3258 55bd ffb9 9dbc
00000120: 8f4c dd3d 9ca9 b5be 5708 e5bd 4e0a f5bc
00000130: a537 6abe 235d 57be 5d94 31be c9b5 59be
00000140: 3f45 3d3d fade 843e 409d a5be bc9d cf3d
00000150: 68b6 9f3e c399 69be 1553 923e b79b 133e
00000160: 2c37 a63d 30d2 3cbd 08b9 b3bb d8bd 8abd
00000170: 3dc1 043d 7f68 083e 0b6e bd3d 5675 7b3e
00000180: 5034 8d3d 7383 ab3e aede 1e3e 8238 aebe
00000190: b125 00be e74c 86be 0577 7cbd d9b7 6e3e
000001a0: 655a ab3e 7e6a a23d 98f1 e63c 0661 603d
000001b0: dacf 02bd 3082 babd 4290 8fbe 993e 92bd
000001c0: 9830 3fbe ac15 9cbe c486 8e3e 9481 9abd
000001d0: cd80 ad3e ca7c 593e 42b1 683e 6d96 1fbe
000001e0: c44e cb3d 30d4 32be aec5 543e 07d7 f33e
000001f0: 6302 35bd b524 263e 68d7 c7be 23ff c2be
00000200: d613 303e 138d 343d e0ff 6f3d fc12 7e3e
00000210: 3815 853b 0f83 4cbe 4eff 60be 4f44 a53d
00000220: 32e2 7d3e acd2 d23d 16de a7bd f220 43be
00000230: 40d7 8dbd 192b b93d 6cdc 213e bc84 96bd
00000240: 76d5 1e3e 4240 2cbd c60c 43be b2c6 fa3c
00000250: 3254 30ba 3004 1fbc 34bd 163e 4f37 333e
00000260: b115 3d3d 686f 90be e3fc fdbd 82a6 b0bd
00000270: a4f4 9a3d 0be2 09be 17dc 663d 563c f23d
00000280: 63be 4abe a215 6f3d 3914 6fbe 6a45 73bd
00000290: 432d 51bc c786 6a3d cef7 d4bc f562 e83d
000002a0: 8779 c3bd 663d cbbd 5133 e739 44aa f93d
000002b0: b2e2 453e 0f81 7c3d 0ab6 ecbd 2ca0 d13b
000002c0: fc35 08be 565a f03d 469f 203e e259 733e
000002d0: 09a3 cd3d 3ecc 0f3d 93d2 c63c 0205 853e
000002e0: 47dd 9e3d 7cc9 4c3e d7c8 d2bd d8b7 a83d
000002f0: 4b77 cb3d 3513 60be 66a3 45be 3240 a03d
00000300: e275 56be 0777 9fbd ed0f 6fbd 55f2 b43d
00000310: d90f 01be d339 33bd b31c f1bd a096 403d
00000320: 03fc b7bc d8f6 ee3c e057 7bbd 5d09 3fbe
00000330: 4f1a 16bc ef80 02bd 4ac9 3e3b 7311 fd3d
00000340: 5384 e53d 1bc8 373e 6111 1b3e c6ea 42bd
00000350: 9465 383e c500 f93d 963a 1a3d f3d5 283c
00000360: c72b 993d 01da 2f3d c556 6cbd e454 90bd
00000370: 6f72 193e 6947 0cbd 8559 83bd e76e 8c3e
00000380: 4663 543d ccd5 853e a0f0 84be cd9b 51be
00000390: f53c 8b3c 91b8 d4bc 9014 2bbe 0092 693e
000003a0: a42f 843e 6676 a43d c1e6 c63d 2610 6c3e
000003b0: d05c 3fbe f4b6 5e3e 1cae 5bbd 696a 653d
000003c0: a5d5 8f3d d34e 423e 0b81 ba3d 9eda 313e
000003d0: 246e 553e bbd2 8e3d c318 42be 42d7 bdbd
000003e0: e7ed 3dbe ec31 343d 495c 433e a910 1abe
000003f0: bbb4 233e f93a 573e f1a2 633e eab1 64bd

onnx::Conv_144 f4 [8]
0.37961072 0.14466015 -0.15270798 -0.664024 -0.54312253 -0.037871554 0.14866503 0.39173847
00000000: 565c c23e ca21 143e 7b5f 1cbe 7afd 29bf
00000010: 140a 0bbf 341f 1bbd a53b 183e f291 c83e

onnx::Conv_146 f4 [8, 8, 3, 3]
0.32162404 0.0940228 -0.011228811 0.29211065 -0.19673553 0.1906563 -0.11987858 0.18712379
0.16590716 -0.038021896 0.014092812 -0.19489741 0.067772806 -0.10309707 0.115787596 -0.34511146
-0.027638366 -0.12801194 -0.1635987 -0.16768594 0.2781311 -0.035900973 0.3590724 0.045449376
0.06071693 -0.14461015 -0.083075576 0.0065452424 -0.17295691 0.18273126 0.107157715 0.09028669
0.16384892 0.09875432 -0.019818773 -0.043959457 -0.038791895 -0.11624317 -0.02876576 0.040674917
0.18169035 -0.23979071 -0.21775892 -0.16560724 -0.1648102 0.06056053 -0.08894609 -0.020139702
-0.11167807 -0.011093672 -0.12522794 -0.24571359 -0.14748608 -0.19826074 0.28185356 0.26236758
0.12719168 0.36100203 0.2536251 0.1418788 0.23845877 0.20478708 0.11412807 -0.20949107
0.12499927 0.13510938 -0.09013411 0.13583736 -0.21547662 -0.04536762 0.14827536 0.11739457
0.065867946 -0.0015470035 -0.021131825 0.2685585 -0.12373385 0.086085364 0.2062209 0.22626634
0.019086089 -0.10446687 0.056139436 0.08387758 -0.20953727 -0.042551495 0.034982838 0.06971395
-0.15630196 0.15446718 0.21700114 0.30532295 0.16669165 -0.10535668 0.11043998 0.032364883
0.09935109 0.0047287312 0.019960849 -0.12069274 0.1461429 0.15228757 0.08200855 0.14152056
0.14283666 0.051504098 -0.00010980883 -0.23262681 0.07815341 -0.08623989 -0.20944759 -0.027194653
0.042751677 0.0370907 0.07161848 -0.07439701 -0.035677694 -0.09829767 -0.007283559 -0.004550272
-0.12753813 -0.280024 -0.19195418 -0.059386794 -0.19552907 -0.038818516 0.050176073 0.035570536
0.34877986 0.3584816 0.2559889 0.39976767 0.18435186 0.1730911 -0.030534944 0.052572023
0.088996015 -0.073989205 -0.23119368 -0.035420008 0.016552024 0.20899041 -0.14850575 -0.15210536
0.05167 0.14886129 -0.11469854 -0.047686018 -0.060449 -0.16534808 -0.014989815 0.21736087
-0.094701424 0.12345804 -0.1979875 0.06368576 -0.12920031 0.13561742 -0.14703466 -0.21009496
-0.076957725 -0.13138482 0.027096137 0.062024433 0.17561665 0.0059946585 -0.12689127 -0.14573702
-0.08882089 -0.056893416 -0.17961484 0.22432286 -0.12698495 0.032650575 0.20145355 0.17848279
0.11759042 0.25737074 0.2572763 0.1412559 0.24557771 0.27436665 -0.03761272 0.099141836
0.018200757 0.06925679 0.23202641 0.09275358 0.19649905 0.12154367 0.3000882 0.0983487
-0.105931126 0.025377281 0.18321142 0.073135935 0.2906327 0.1588899 -0.0071999226 -0.0554062
-0.14668241 -0.17038481 0.013829667 -0.043119915 0.060539644 -0.20083152 -0.11408163 0.035483085
-0.2030725 -0.06286449 -0.05803247 -0.1014567 -0.0872137 -0.15013312 -0.01611861 -0.12742805
-0.07625877 0.112609796 -0.04580277 0.20738576 -0.08748869 -0.18740563 0.08378381 0.08687309
0.09448305 -0.09979615 0.17496002 -0.029551802 -0.11055383 -0.08766503 -0.11876426 0.14814663
-0.17348397 -0.12907062 -0.25131208 -0.018891638 0.04542262 -0.13577315 0.07512493 -0.2432378
-0.21844451 0.22992234 -0.10490666 0.10740558 0.15783773 -0.019843334 0.046413016 -0.14671792
0.020840654 0.016409684 0.12123175 -0.067166254 0.05786608 0.065363 0.40738156 -0.17942293
00000000: e8ab a43e 078f c03d 0cf9 37bc 878f 953e
00000010: 0a75 49be 683b 433e e782 f5bd 619d 3f3e
00000020: 91e3 293e d9bc 1bbd 8ae5 663c 3093 47be
00000030: 78cc 8a3d 8e24 d3bd 0c22 ed3d 73b2 b0be
00000040: db69 e2bc 9015 03be 6b86 27be ddb5 2bbe
00000050: 3367 8e3e e60c 13bd 56d8 b73e 2029 3a3d
00000060: 51b2 783d af14 14be 8723 aabd 7979 d63b
00000070: 9e1b 31be e71d 3b3e 8175 db3d 3ae8 b83d
00000080: 03c8 273e b43f ca3d fb5a a2bc d50e 34bd
00000090: 40e4 1ebd e610 eebd 2ca6 ebbc be9a 263d
000000a0: 090d 3a3e b28b 75be 32fc 5ebe f294 29be
000000b0: 01c4 28be 510e 783d 5e29 b6bd 04fc a4bc
000000c0: 79b7 e4bd 3cc2 35bc c13b 00be 589c 7bbe
000000d0: 9706 17be dd04 4bbe 1c4f 903e 0b55 863e
000000e0: 893e 023e 42d5 b83e 26db 813e ad48 113e
000000f0: 892e 743e b4b3 513e fabb e93d d484 56be
00000100: 9eff ff3d 1d5a 0a3e 3b98 b8bd f318 0b3e
00000110: e7a5 5cbe 66d3 39bd 7fd5 173e 906c f03d
00000120: c6e5 863d d3c4 caba a61c adbc 8080 893e
00000130: 2c68 fdbd 864d b03d 922b 533e 5db2 673e
00000140: 6e5a 9c3c baf2 d5bd 77f2 653d 02c8 ab3d
00000150: f090 56be 7a4a 2ebd 2a4a 0f3d 30c6 8e3d
00000160: 9f0d 20be a52c 1e3e 8c35 5e3e 4a53 9c3e
00000170: 37b1 2a3e 3ec5 d7bd 5b2e e23d 0a91 043d
00000180: 9678 cb3d 79f3 9a3b ef84 a33c c12d f7bd
00000190: 7ca6 153e 46f1 1b3e 19f4 a73d c4ea 103e
000001a0: c643 123e f6f5 523d 2b49 e6b8 b935 6ebe
000001b0: e50e a03d 8a9e b0bd 6e79 56be 52c7 debc
000001c0: 621c 2f3d 6bec 173d b6ac 923d 765d 98bd
000001d0: c622 12bd 4a50 c9bd ecaa eebb 731a 95bb
000001e0: 5b99 02be 4e5f 8fbe a38f 44be 913f 73bd
000001f0: c638 48be 2a00 1fbd 6d85 4d3d 69b2 113d
00000200: 4693 b23e e68a b73e fa10 833e 59ae cc3e
00000210: bcc6 3c3e cb3e 313e 6b24 fabc c355 573d
00000220: 8b43 b63d a787 97bd 09be 6cbe 9214 11bd
00000230: 1c98 873c 9501 563e e411 18be 82c1 1bbe
00000240: eca3 533d 186f 183e 11e7 eabd 6a52 43bd
00000250: 5f99 77bd 0251 29be d797 75bc d993 5e3e
00000260: d2f2 c1bd 92d7 fc3d 3cbd 4abe ae6d 823d
00000270: 164d 04be 4bdf 0a3e 4190 16be 2223 57be
00000280: 039c 9dbd be89 06be b8f8 dd3c 550d 7e3d
00000290: dad4 333e d76e c43b c9ef 01be 163c 15be
000002a0: bae7 b5bd 1209 69bd f4ec 37be e4b4 653e
000002b0: 5808 02be 9cbc 053d d749 4e3e 31c4 363e
000002c0: 3fd3 f03d 19c6 833e b8b9 833e 63a5 103e
000002d0: b978 7b3e c979 8c3e cc0f 1abd e00a cb3d
000002e0: c119 953c 81d6 8d3d 5598 6d3e 97f5 bd3d
000002f0: 0c37 493e e3eb f83d 29a5 993e 0b6b c93d
00000300: 6bf2 d8bd 04e4 cf3c c69b 3b3e 4bc8 953d
00000310: cfcd 943e 09b4 223e 54ed ebbb 9df1 62bd
00000320: ea33 16be 5b79 2ebe d495 623c 829e 30bd
00000330: 6bf8 773d c7a6 4dbe a1a3 e9bd b656 113d
00000340: 3df2 4fbe 19bf 80bd 75b3 6dbd 88c8 cfbd
00000350: 199d b2bd 7fbc 19be 2d0b 84bc 807c 02be
00000360: 8f2d 9cbd f79f e63d af9b 3bbd ef5c 543e
00000370: 452d b3bd 43e7 3fbe d996 ab3d 85ea b13d
00000380: 5480 c13d ed61 ccbd b828 333e 9f16 f2bc
00000390: 0c6a e2bd b989 b3bd ad3a f3bd c0b3 173e
000003a0: c8a5 31be 172b 04be faab 80be a3c2 9abc
000003b0: 120d 3a3d 1e08 0bbe 19db 993d 5413 79be
000003c0: ebaf 5fbe c370 6b3e 4ed9 d6bd 75f7 db3d
000003d0: 37a0 213e 7d8e a2bc 931b 3e3d 393d 16be
000003e0: 05ba aa3c 9a6d 863c 5a48 f83d 768e 89bd
000003f0: fc04 6d3d 09dd 853d 5194 d03e a5ba 37be

onnx::Conv_147 f4 [8]
-0.30568725 -0.39204192 -0.2571099 -0.27424937 -0.25560507 -0.26275072 -0.42736137 0.009008676
00000000: 0a83 9cbe b8b9 c8be e9a3 83be 6a6a 8cbe
00000010: abde 82be 4387 86be 1ccf dabe 2099 133c

onnx::Conv_149 f4 [8, 8, 1, 1]
0.53139454 -1.1738052 0.20259239 -0.71957105 0.09998974 -0.67756563 0.64268893 0.45473084
0.578501 -0.32305932 -0.1663408 -0.6860107 0.7427899 -0.03330995 0.54005665 0.41857693
-0.067616574 -0.68418247 -0.37912384 0.9423097 0.08456587 0.57836914 0.7426381 -0.7053836
0.4616013 -0.1677515 0.3801529 0.8760345 -0.3161016 0.7423967 -0.21661535 -0.8642416
-0.72056586 -0.30100098 0.4038178 -0.449318 -0.6859889 -0.50986874 -0.66487837 -0.6709873
0.032006837 0.22981495 0.67581326 -0.25197566 -0.74246997 -0.10224298 -0.91632324 0.46188942
-0.12736295 -0.42055047 -0.2354166 -0.64619374 1.050162 0.6091404 0.4202427 0.105703875
1.0974519 0.473685 0.6557741 0.7396578 0.4276277 -0.40470597 0.5322793 0.13781261
00000000: 7909 083f 403f 96bf 6174 4f3e cf35 38bf
00000010: 6cc7 cc3d f174 2dbf 4387 243f 7bd2 e83e
00000020: a418 143f 0868 a5be 3e55 2abe 669e 2fbf
00000030: 7b27 3e3f 0470 08bd 2741 0a3f b74f d63e
00000040: 8f7a 8abd 9526 2fbf 851c c2be 353b 713f
00000050: df30 ad3d 0010 143f 881d 3e3f 0594 34bf
00000060: 0157 ec3e 0dc7 2bbe 67a3 c23e cc43 603f
00000070: 12d8 a1be b60d 3e3f 6ad0 5dbe f03e 5dbf
00000080: 0177 38bf cd1c 9abe 35c1 ce3e 020d e6be
00000090: f89c 2fbf c286 02bf 7835 2abf d3c5 2bbf
000000a0: 9a19 033d 9c54 6b3e 1902 2d3f f402 81be
000000b0: 8312 3ebf c464 d1bd 2994 6abf c57c ec3e
000000c0: 6f6b 02be 6452 d7be 0d11 71be f46c 25bf
000000d0: b56b 863f a0f0 1b3f 0d2a d73e 467b d83d
000000e0: 4e79 8c3f d786 f23e d0e0 273f 375a 3d3f
000000f0: 05f2 da3e 9f35 cfbe 7543 083f c01e 0d3e

onnx::Conv_150 f4 [8]
0.50420284 -0.5728382 0.08018438 0.19840518 2.0015929 0.57867426 -0.4651934 -1.3946619
00000000: 7013 013f 86a5 12bf b537 a43d ba2a 4b3e
00000010: 191a 0040 ff23 143f d42d eebe 4884 b2bf
