Assets/NeuralNetworkModels/model_size5k_28_epochs18_batch4_seed23.onnx (onnx, 26626 bytes, 26 tensors)

fc.weight f4 [3, 16]
000000 1a 3e 9f 3e 3d 93 98 3e 9b 18 05 bf f3 ea 55 3e
       0.31102067 0.29799834 -0.5199067 0.20890407
000010 45 24 97 bd 3c 31 e9 be ef 4a 62 be 89 b3 bf 3e
       -0.07379965 -0.45545375 -0.22098897 0.37441662
000020 17 39 70 ba 3b 68 ad be 89 88 13 3b b6 5e 4b 3e
       -0.00091637805 -0.33868584 0.0022511801 0.19860348
000030 0d e9 cd bd a4 70 45 3e 18 c5 85 3e 5e fa fe bd
       -0.100542165 0.1928125 0.26126933 -0.124500975
000040 4d 42 65 be 5d 63 9c 3e de 10 e1 bd ef e1 d9 be
       -0.22388573 0.30544558 -0.10989545 -0.42555186
000050 0c 4c be be 07 50 bc 3e fa 47 f8 3c 1c de 62 be
       -0.37167394 0.36779806 0.030307759 -0.2215504
000060 ec 5d 96 3e f6 df 9a 3e ce 32 b6 bd c2 78 cf bd
       0.29368532 0.30248994 -0.08896409 -0.101304546
000070 5e 28 d5 be 01 74 fb bd 21 70 90 be 8f 7e 58 3e
       -0.4163236 -0.12277985 -0.28210548 0.21142028
000080 d8 4a 44 be a3 69 79 be f2 97 a1 3e c0 72 25 3e
       -0.19169176 -0.24356703 0.31561238 0.16157055
000090 3b 59 e9 3e 12 bc aa 3c d2 61 ca 3e bd 54 3b be
       0.4557589 0.020841632 0.39527756 -0.18294044
0000a0 cb 1f dd be 53 63 3f be c8 68 db be b9 e1 80 be
       -0.4318832 -0.18690233 -0.4285338 -0.25172213
0000b0 8c b2 9d 3e 0c 61 d3 bd b6 1c b8 3e ce 70 c2 be
       0.30800283 -0.103212446 0.35959405 -0.37976688

fc.bias f4 [3]
000000 89 b5 15 bd e3 f8 2b bd b5 ec 32 3e
       -0.03655008 -0.041985404 0.17473109

onnx::Conv_116 f4 [2, 1, 3, 3]
000000 18 72 7b bf 7a 66 0b c0 35 23 7a bf 6e fd 91 bf
       -0.9822097 -2.1781297 -0.9770997 -1.1405466
000010 ee a5 43 40 76 b9 2c c0 8b c0 97 bf 51 8b 63 40
       3.0570025 -2.6988196 -1.1855634 3.5553782
000020 03 b6 cf 3f 08 2c 29 c0 2a b8 95 3f 33 9d f8 bf
       1.622742 -2.6433125 1.1696827 -1.9422973
000030 36 86 d2 3f dd 93 aa 3e d8 de b2 be 1c 8f bd bf
       1.6447208 0.33315936 -0.3493564 -1.4809299
000040 e3 39 dd bf 9d 2e c9 bf
       -1.7283291 -1.571735

onnx::Conv_117 f4 [2]
000000 e2 bb a0 3d 30 4f 9c 3e
       0.07848336 0.30529165

onnx::Conv_119 f4 [2, 2, 3, 3]
000000 1b 83 94 bd a8 cd 05 bf 8f 6f 02 bd 4f a7 0c bf
       -0.07251569 -0.5226693 -0.03184467 -0.5494279
000010 0f b1 d6 be cd 6c ee be 51 ca 96 3e 28 a2 34 bf
       -0.4193196 -0.46567383 0.2945123 -0.7055993
000020 c5 8b 2e 3f 08 75 27 3f b7 71 65 3f 81 71 3a be
       0.6818202 0.6541295 0.8962664 -0.18207361
000030 82 64 98 3d 89 5b de 3d 1a af 84 be 2f 18 27 3e
       0.07441045 0.10857303 -0.25914842 0.16317819
000040 e9 a1 db 3d 47 77 4a bf 45 fc cf bb 21 90 45 bf
       0.10724241 -0.7908825 -0.0063472115 -0.7717305
000050 ae 08 66 3e d8 be fb 3e 74 44 eb 3d ee 24 42 bf
       0.22464249 0.4916904 0.11487666 -0.758376
000060 33 51 cc be 70 4c 10 3f 44 c2 86 be a3 43 bb 3e
       -0.399057 0.56366634 -0.26320088 0.3657504
000070 42 75 c8 be 54 41 92 bd cd 85 19 bf 23 97 4d bf
       -0.3915196 -0.071413666 -0.5996979 -0.8030874
000080 e5 94 12 bf 75 05 b5 bd 09 bc 77 3f f8 81 4d 3f
       -0.57258445 -0.088389315 0.96771294 0.8027644

onnx::Conv_120 f4 [2]
000000 08 16 71 3e 4e 8e c0 3e
       0.2354356 0.3760857

onnx::Conv_122 f4 [2, 2, 3, 3]
000000 26 48 67 3e f4 fb 58 3f 32 ff 0c 3f da db 14 bf
       0.22586116 0.8475945 0.550769 -0.58147967
000010 ae a1 b7 3e d0 19 c4 be 29 5a 43 bf ca ca 9d be
       0.3586554 -0.38300943 -0.7630945 -0.30818778
000020 46 c3 5c 3e b8 8b 03 3e 89 51 d0 bc cf a5 15 3e
       0.21558866 0.12846267 -0.025429504 0.14614032
000030 98 a1 a7 3e d0 89 47 bf 49 71 73 bf ce 7e e5 3e
       0.32740474 -0.7794466 -0.95094734 0.44823307
000040 e2 62 09 3f cc 38 e6 be 60 b0 d3 3e 05 22 bb 3e
       0.5366651 -0.44965208 0.413455 0.36549392
000050 e4 22 d3 3e 77 85 a9 3e 4c 43 78 3e db 82 11 3f
       0.41237557 0.33109638 0.24244422 0.56840295
000060 a3 82 81 be c1 91 0b be 95 dd 79 3e 35 8c 3c 3e
       -0.2529498 -0.1362982 0.24400933 0.1841286
000070 9a 2f 12 bf 7d 1d 88 3d 02 9e 0a 3f 1e 7b ef 3e
       -0.57103884 0.066462494 0.5414735 0.46773618
000080 9f 70 d3 3e b6 fe 40 3e 34 0a 78 bd c8 f1 b6 be
       0.4129686 0.18847165 -0.060556605 -0.3573134

onnx::Conv_123 f4 [2]
000000 28 40 0c 3e 2a 84 66 bf
       0.13696349 -0.90045416

onnx::Conv_125 f4 [4, 2, 3, 3]
000000 9a f4 1f 3e 28 5f d8 bc c2 c4 ce 3d bc 56 3e bd
       0.15620652 -0.026412562 0.10096122 -0.046469435
000010 53 14 ca 3d f1 60 b1 bc d1 cc 81 3e bc 1b 87 bd
       0.09867158 -0.02165267 0.25351575 -0.06597087
000020 92 ea 7e 3e e7 25 07 3e 10 2e 59 3e f4 be 84 3e
       0.24894169 0.13198052 0.21208978 0.25926936
000030 83 48 93 3b 35 0c 86 bd ef 27 2b be 96 4f 1d bc
       0.004494728 -0.06545297 -0.16714452 -0.009601494
000040 45 c6 8f 3e 44 b2 8a 3e a5 d8 27 be 8e 55 d9 3d
       0.28080955 0.2708913 -0.16391237 0.106120214
000050 44 6b b1 be b1 e9 69 bd 12 8c 42 be 6e c8 83 be
       -0.3465215 -0.05710763 -0.18998745 -0.25738853
000060 2c 90 e0 be 2e e2 3f 3e d7 74 af 3e 30 bb 55 3e
       -0.43859994 0.18738624 0.3426883 0.20872188
000070 4d 52 85 be 6c d1 2c 3e c8 5a f2 3e 37 48 03 3f
       -0.26039353 0.16876763 0.47334886 0.51282066
000080 c3 ce 0b bf 00 c7 52 bd e8 24 a4 3e f4 68 14 3d
       -0.5461237 -0.051459312 0.32059407 0.036232904
000090 71 f6 5b be 7c 55 0d 3e dd f9 3a 3e e9 53 de 3d
       -0.21480729 0.13802141 0.18259378 0.10855848
0000a0 39 de d2 3d f5 b0 0b 3e da 3d d4 3c fb ab 40 3b
       0.10296292 0.13641723 0.0259084 0.0029399383
0000b0 46 10 8b bd 39 24 60 3e 78 f9 88 3e c4 44 4c 3d
       -0.06790213 0.21888818 0.2675283 0.049870268
0000c0 19 ef 03 be bb e1 86 3d 58 c1 a0 3d 21 7a 32 be
       -0.12884177 0.065860234 0.078493774 -0.17429401
0000d0 60 f2 83 be ea b3 68 be ad 78 1e be cc 7f d1 bd
       -0.25770855 -0.22724882 -0.15475722 -0.102294534
0000e0 36 a3 9c be c4 33 6f be 98 65 98 3e dc 91 98 bc
       -0.3059327 -0.23359591 0.2976501 -0.018624239
0000f0 59 3b 36 be 0b c3 88 be 86 2a 27 be 23 51 a3 3c
       -0.17796077 -0.26711306 -0.16324815 0.01993615
000100 6a 97 c5 3d 9e b8 1c 3e 34 8c 62 bd 3e 9d 59 be
       0.096480206 0.15304801 -0.05530949 -0.2125139
000110 ff 96 83 3e 98 79 4e be 70 b3 5a be 2a 9c ca be
       0.25701138 -0.20163572 -0.21357512 -0.3957227

onnx::Conv_126 f4 [4]
000000 06 c5 4f bf 01 74 1b be 1a 47 18 be 48 cb 6d 3f
       -0.8116001 -0.1518097 -0.14870873 0.9288831

onnx::Conv_128 f4 [4, 4, 3, 3]
000000 8a c0 80 3b 13 6b aa 3e 2d b9 b8 3e d1 23 d7 bd
       0.0039292024 0.33284816 0.36078778 -0.10504878
000010 cc e4 85 3c 8e 10 1f be 7b 74 b6 3e ef 03 8e 3d
       0.01634445 -0.15533659 0.35635743 0.06934344
000020 f9 dc 7e 3e 57 a8 a8 bd 7e 4d 05 3e 94 14 da 3e
       0.24888982 -0.08235233 0.13017842 0.42593825
000030 d5 b1 57 3d cb 3e 42 bd fe 81 98 3e 2c f7 60 3e
       0.05265983 -0.047423165 0.29786676 0.21969289
000040 0e f0 45 be d1 30 67 3e fe 23 c5 3e 89 38 32 be
       -0.19329855 0.22577216 0.38504022 -0.17404379
000050 05 1a b8 3d 4f 44 74 3e 8c 35 8c be 55 1e b2 3d
       0.08989338 0.23854183 -0.27384603 0.086971916
000060 15 22 2b be 22 86 7a 3d 38 a2 1c 3c 3a 5e 08 3f
       -0.1671222 0.061163075 0.00956016 0.5326878
000070 6c 2f 09 3e bf 7a 42 be ee 76 e0 3e b0 5d 8f 3e
       0.13396996 -0.18992136 0.43840736 0.28001165
000080 c9 32 25 3c 6a db ce 3e b6 e3 65 3e b2 a3 ed 3d
       0.010082909 0.40401775 0.22450146 0.11603488
000090 f8 f6 41 3e 2b a1 01 3e 4f dc 04 3e 42 a1 6a 3e
       0.18941867 0.12659137 0.12974666 0.22913077
0000a0 27 91 df 3b bb 11 e7 bc f8 70 12 3d c2 88 9b 3d
       0.0068227234 -0.028206697 0.035752267 0.07594444
0000b0 c6 83 08 3e 54 3e 1b be 54 65 85 bd aa 8e 30 3e
       0.13331518 -0.15160495 -0.065134674 0.17241922
0000c0 98 f6 70 3e 48 3a 4f be 2e dc bf 3c 95 68 6c be
       0.23531568 -0.20237076 0.02342042 -0.2308677
0000d0 26 6c a1 3d 0f 54 b8 3d e4 e7 a0 3b c8 ea 37 be
       0.07881956 0.09000408 0.004910456 -0.17960656
0000e0 8b 50 a2 3e 95 b4 db 3d 50 d7 95 be 16 84 49 be
       0.31702074 0.10727803 -0.29265833 -0.19679293
0000f0 1e 48 9d 3e 35 fd 9c 3e 44 84 78 3e 4a 07 71 bd
       0.30719084 0.30661932 0.24269205 -0.058844842
000100 74 a2 9f 3d 9f aa 19 bd 3b 69 82 be d9 47 61 be
       0.07794657 -0.037516233 -0.2547091 -0.22000064
000110 88 70 57 3c 81 ba f5 bd 81 e0 4f be 84 ba 91 be
       0.013149388 -0.119984634 -0.20300485 -0.28462613
000120 bb 37 b6 be d3 97 e8 3e d4 4d 0c 3f 5e 57 08 bf
       -0.35589394 0.45428333 0.54806256 -0.5325831
000130 08 0c a4 be a3 22 06 3e 53 60 a1 bd 4b fd 62 3e
       -0.3204043 0.1309915 -0.078797005 0.22166936
000140 7b dc d3 3e 6b f0 56 3d 03 34 1a 3d 68 99 7b bc
       0.4137915 0.052475374 0.03764726 -0.015356399
000150 c2 4d f8 bd 74 4d aa be f1 eb 42 be 26 00 80 be
       -0.12124206 -0.33262217 -0.19035317 -0.25000113
000160 b5 d4 84 3e 83 88 c8 3e 5c 20 26 be c5 5c 25 3e
       0.25943533 0.3916665 -0.16223282 0.1614867
000170 89 20 b0 3e 17 c7 0f 3e 28 3e 31 be 45 26 0d be
       0.34399822 0.1404079 -0.17308867 -0.1378413
000180 4e 7c 9b 3c ca 46 11 bf 5b 26 22 3e 8d f8 57 be
       0.018980172 -0.5674864 0.15834944 -0.21090908
000190 a0 bc 38 be 9f 7d 51 be f8 9d 2e be 45 75 b8 3d
       -0.18040705 -0.20458077 -0.17052448 0.090067424
0001a0 34 65 4b be d4 a4 77 3e b0 7f a2 3e a7 7b e2 3d
       -0.19862825 0.2418397 0.31738043 0.11058741
0001b0 90 e4 77 3e 45 06 ff be 9d c9 b6 3d c3 31 cc bd
       0.24208283 -0.4980947 0.089251734 -0.09970429
0001c0 15 9b e4 bd ff 10 bb 3e c2 7c b7 3e eb 4e 36 3e
       -0.11162392 0.36536404 0.3583737 0.17803542
0001d0 fd f5 f7 bd 6a d8 98 3e 74 e3 a8 be 8f 25 46 3e
       -0.121074654 0.2985261 -0.32986033 0.19350265
0001e0 d6 0b ea 3d de e1 4f be ba b9 a6 bb 8a 8a ad 3d
       0.11428039 -0.20301005 -0.0050880583 0.0847369
0001f0 44 99 93 3e e0 97 78 bd 0e e2 d3 bd fb ab bc be
       0.2882787 -0.060691714 -0.10345851 -0.3684996
000200 1a 74 3d be e7 0f fe 3e 87 e3 be bd f3 7d 35 be
       -0.1850132 0.49621508 -0.09320741 -0.17723827
000210 ce 8e 56 3e a6 f4 13 3e 8c 1e 7d 3e db 0c bd be
       0.20952913 0.14448795 0.24718684 -0.3692387
000220 da d1 67 3e 57 2c d9 be c7 ce aa 3e b1 cc ca be
       0.22638646 -0.4241664 0.33360884 -0.39609292
000230 a9 13 d3 3e 28 da 4a 3d 4e 2e ba be 25 e1 d2 bd
       0.41225937 0.049524456 -0.36363453 -0.10296849

onnx::Conv_129 f4 [4]
000000 a8 4e c7 bf 0a 09 b1 bc 2c 42 f2 bc 18 d0 b2 bc
       -1.5570879 -0.021610755 -0.029572569 -0.021827742

onnx::Conv_131 f4 [4, 2, 1, 1]
000000 e5 0f 01 bf af 53 fe be d9 c0 f6 3e e6 a5 31 3f
       -0.5041488 -0.4967322 0.48194006 0.69393766
000010 7c af 2c 3f 36 6b 7e bf cf 42 54 bf 61 43 62 3f
       0.6745527 -0.9938234 -0.8291444 0.8838406

onnx::Conv_132 f4 [4]
000000 1a ad 21 3f d7 86 27 bf 12 82 a2 3e e4 b7 2c be
       0.6315476 -0.65440124 0.3173986 -0.16867024

onnx::Conv_134 f4 [8, 4, 3, 3]
000000 60 d9 d0 3d 1f 13 2d 3c 65 54 0b be 65 90 e5 bd
       0.10197711 0.010563641 -0.13606413 -0.11209182
000010 7e 9f c4 3d f9 ff 0a be b7 e3 02 be 8c 15 2f 3d
       0.09600733 -0.13574208 -0.12782179 0.042745158
000020 77 4e aa bd 9c 1c 21 be aa 8f 4f be e8 a6 05 3e
       -0.08315747 -0.1573357 -0.20269647 0.13051951
000030 46 cd 41 3d f9 57 42 be 48 5c 57 be 38 15 01 3e
       0.047314905 -0.18978871 -0.21031296 0.1260575
000040 1c 39 cf bd a1 01 25 be 3a 84 18 be 92 60 82 be
       -0.101183146 -0.16113903 -0.1489419 -0.25464302
000050 2b d8 c6 bd 1b 35 6e bc fb 9c 5f be da ea 14 bc
       -0.097091995 -0.0145390285 -0.21837227 -0.009089196
000060 b1 91 31 3e 50 72 7c 3d 70 82 2f 3e 33 5e b2 3d
       0.17340733 0.061632454 0.17139602 0.08709373
000070 e4 d7 8f 3c 1b 60 08 be 50 3b 91 3b bf 9b f2 bd
       0.017559 -0.13317911 0.0044321194 -0.118461125
000080 3d 7d dd bd b5 37 58 bd 5e 76 fc 3d b5 f5 cc 3c
       -0.10814903 -0.0527875 0.12327264 0.025019506
000090 50 a2 57 3e 0c 8d 15 3c 83 2d 68 be 3d ce 77 bd
       0.21058011 0.0091278665 -0.22673611 -0.06049942
0000a0 6d 31 1b 3c 93 a9 80 bd f1 6d 45 3e b2 81 bb bd
       0.009472233 -0.06282344 0.1928022 -0.09155597
0000b0 68 5a 79 3e 0e 81 83 be 0d d2 70 3e 68 ee f9 bd
       0.24350893 -0.25684398 0.23517628 -0.122036755
0000c0 d4 81 15 be 47 6c e2 3d e2 0c 47 3b 59 fa 6f be
       -0.14600307 0.110558085 0.003037267 -0.23435344
0000d0 69 e6 90 bc 95 8f 47 3d 6e ef 66 3e 2f 2e a1 bd
       -0.017687993 0.048720915 0.22552273 -0.07870137
0000e0 49 4a 84 bd ef fb 94 3e 07 58 be 3d 68 f5 b8 bd
       -0.06459481 0.2909846 0.09294134 -0.090311825
0000f0 a2 9a c8 3c 0f 8b 1f 3e 1b 51 3d 3e 68 ab 94 bd
       0.024487797 0.1558039 0.1848797 -0.07259256
000100 91 2f f2 3d 81 15 15 3e b4 06 07 be aa 74 5a be
       0.11825479 0.14558984 -0.13186151 -0.21333566
000110 d9 76 47 be 88 86 de bc 30 fd 95 bc 4c ec fe bd
       -0.1947893 -0.027163759 -0.018309206 -0.12447414
000120 05 93 63 be 45 00 4b be b7 04 c2 be 46 74 3c be
       -0.22224052 -0.19824322 -0.37894222 -0.1840373
000130 16 a4 76 be 42 fc 4d bc c8 e3 69 3d 7a ee 9b bd
       -0.24086031 -0.01257235 0.057101995 -0.07613845
000140 5a 4e 6b bd 3e bb 38 3e 00 f7 1f 3e e5 10 d5 bd
       -0.05744777 0.18040177 0.15621567 -0.10403613
000150 2d b4 4d 3e 22 e9 cc 3d d4 09 15 bd 84 4a 81 bd
       0.20088263 0.10005404 -0.036386326 -0.06313041
000160 20 7f 43 3d 6f 32 79 bd d1 c8 34 be d4 e5 86 be
       0.047728658 -0.060839113 -0.1765473 -0.2634722
000170 63 bb 7e be de 8c 84 be f3 f0 20 be e2 32 ba bc
       -0.2487617 -0.25888723 -0.15716915 -0.022729341
000180 3d 50 05 3e 02 1a 00 bd 20 2a dd bd 53 d7 19 be
       0.1301889 -0.031274803 -0.1079905 -0.15023546
000190 4e 76 93 3d d3 c1 16 3e 72 0d d6 3d 15 13 25 be
       0.07200299 0.14722376 0.10451783 -0.1612056
0001a0 ae d3 a4 bc 95 1f b5 3d 43 33 65 bd 95 de a6 3d
       -0.020120468 0.088439144 -0.05595709 0.08147923
0001b0 2e 8c 8d 3e 70 8c 7e be f2 ed ee 3d b5 59 7e bd
       0.2764601 -0.2485826 0.11666478 -0.06209727
0001c0 09 61 a8 bd 87 2e 54 bd 1b 00 83 be 4d bd 98 bd
       -0.08221633 -0.051802184 -0.25586018 -0.07457981
0001d0 73 9c 38 be 51 08 4b bd 99 41 83 be 12 a9 12 bd
       -0.1802843 -0.049568478 -0.25635985 -0.03580577
0001e0 9d d3 b4 3e c7 d2 97 3e f7 dc ab 3e 8b 43 86 bc
       0.35317698 0.29652998 0.3356702 -0.016389629
0001f0 5e 44 8b be 56 b1 4c be 70 ac 9a 3e b5 b6 14 3e
       -0.27200598 -0.19989523 0.30209684 0.14522822
000200 ba 48 15 3e d6 e5 b0 be 9f a4 5e be 88 bb 11 3e
       0.14578524 -0.3455035 -0.21742485 0.14231694
000210 2c 7f f4 3c 71 a3 cc 3b 02 94 e2 3d 6d 49 7e bd
       0.029845797 0.0062450697 0.110633865 -0.062081743
000220 60 25 30 be 4c 19 2e 3e f2 02 8e be b6 57 41 be
       -0.17201757 0.17001837 -0.27736622 -0.18881115
000230 66 1b 69 be a4 7e b4 bd 7b c4 b1 3d b9 22 11 3e
       -0.22764358 -0.08813217 0.08680054 0.14173402
000240 59 b0 b2 3c e5 67 9b 3d 31 2e e7 bd 9e c0 f8 3d
       0.021812605 0.07588176 -0.11288107 0.12146114
000250 43 a5 98 3d d1 cc 1a 3e b7 3b 6a bc 06 03 cd 3d
       0.07453396 0.15117194 -0.014296464 0.10010342
000260 7b 68 63 bd 33 20 39 3e 1f 10 fb 3d 05 4b b7 3d
       -0.055519562 0.1807869 0.12258934 0.08949856
000270 5a 5a 95 bd 67 97 bc 3a af 5a d7 3d 70 2c 93 bd
       -0.07292624 0.0014388383 0.105153434 -0.0718621
000280 7b 77 7c bd eb ec 1f be 49 5e f1 3c f9 bd 15 3e
       -0.061637383 -0.15617721 0.029463904 0.1462325
000290 5a 5d 4b bd 5c 7f 6d 3e b0 1d 1c 3e e6 89 8f bc
       -0.049649574 0.23193115 0.152457 -0.01752181
0002a0 30 78 05 3e 42 57 ff bd b9 98 9e 3c 41 0b 99 3d
       0.13034129 -0.12467815 0.019359933 0.0747285
0002b0 a0 82 07 3d 4c fb f2 3d 6f bf f5 3d 25 71 42 3c
       0.033083558 0.11864337 0.11999404 0.011867796
0002c0 1e c8 e7 3d a0 c4 38 3d 70 3b 0e 3e 6f 97 25 be
       0.11317466 0.04510939 0.13889861 -0.16171049
0002d0 3c 2a 21 3e 03 2c 1a 3d c4 e7 4f 3c 91 3e 9c 3d
       0.15738767 0.03763963 0.012689535 0.07629121
0002e0 28 b5 ab ba fa b8 88 bd 3d 00 77 be 91 34 49 be
       -0.0013100253 -0.066759065 -0.24121185 -0.19648959
0002f0 03 92 f7 3d df 8d 72 3e 13 28 69 bd 7a c6 89 3d
       0.120883964 0.23686932 -0.056922983 0.067273095
000300 4e e8 b7 3e d7 e3 d5 3d 61 4f f4 bd 42 d4 22 3e
       0.35919422 0.104438476 -0.11929203 0.15901282
000310 dd d3 e1 3c 5f 88 9e 3d fc 9f 03 3e 7e 38 e7 bd
       0.027566845 0.077408545 0.12853998 -0.11290072
000320 ca 1b 88 3c ed 50 e1 3d f5 32 4a be 50 9f 01 3d
       0.016614813 0.110017635 -0.19746001 0.031646073
000330 71 d0 26 bc 9f f4 03 3d e0 3b cc bc 1b a6 04 3e
       -0.010181532 0.03221571 -0.024930894 0.12953989
000340 3a 6d 1c 3c 19 15 fd bd 22 04 55 3d 2f 82 b9 bd
       0.009547526 -0.1235754 0.052005894 -0.09058034
000350 5e 08 52 3e c3 14 65 3d b9 04 3a be 01 35 3a be
       0.20511004 0.055928003 -0.18165864 -0.18184282
000360 7a db 80 be e4 b2 b3 bd 57 03 93 be 1f 35 82 3d
       -0.25167447 -0.08774355 -0.28713486 0.06357788
000370 ea d6 0a be 2d 9d 33 be 81 75 a0 bd bc a7 f3 3d
       -0.13558546 -0.17540427 -0.07834912 0.11897227
000380 d6 76 cd bd d4 c9 3b 3e 78 ce f5 bd 73 b1 2f 3e
       -0.10032432 0.1833871 -0.120022714 0.17157535
000390 6c 12 59 3d 58 a4 2c bd 67 50 8a 3e 26 73 03 be
       0.052996084 -0.042148918 0.27014467 -0.12836894
0003a0 ac 03 4c 3c 36 c1 d1 3d 2e 41 6a be 04 6c 0b be
       0.012452047 0.1024193 -0.22876427 -0.13615423
0003b0 c5 3d 8c 3e d4 76 73 bd af dc 9d 3e c2 7d ce bd
       0.27390876 -0.059439495 0.3083243 -0.1008258
0003c0 ee f8 60 3e d5 65 84 3e d2 93 4b 3c d1 99 b9 3d
       0.21969959 0.25858942 0.01242538 0.09062541
0003d0 0d 05 69 3e 0e 89 4d be f8 69 b9 3d 2a 3a a7 bd
       0.22755833 -0.20071813 0.09053415 -0.08165391
0003e0 b2 08 82 bd e8 d8 3b be 1a cb f1 bd 1f df 46 3d
       -0.06349315 -0.18344462 -0.11806317 0.04855263
0003f0 51 63 91 bc 04 52 2b be 49 0f 0f be d1 34 46 be
       -0.017747553 -0.16730505 -0.13970675 -0.19356085

onnx::Conv_135 f4 [8]
000000 b4 37 7e 3f e4 f8 e1 3d 56 dc 20 3f 88 8e 8c 3e
       0.99303746 0.110338 0.62836206 0.27452493
000010 60 e2 11 bf 26 3e 67 be ea 0b 1c be 00 23 9d bd
       -0.56986046 -0.22582301 -0.1523892 -0.07672691

onnx::Conv_137 f4 [8, 8, 3, 3]
000000 b6 ab d0 3c 7d 3a 11 3e e7 93 a8 be 62 0b 5a be
       0.025472503 0.14182468 -0.3292534 -0.21293405
000010 a8 3d de be bb 4a d2 3d b2 a2 8e 3e 0a 4b 3f be
       -0.43406415 0.1026816 0.27858502 -0.18680969
000020 76 53 64 3e 8f eb 01 3f d2 04 94 bd a2 0b 13 3d
       0.22297463 0.5075006 -0.07227482 0.035899766
000030 0c f7 65 be e3 9f 93 3e fb b9 5d 3e 19 d9 49 3e
       -0.22457522 0.2883292 0.21652977 0.19711722
000040 28 ff 18 be f2 87 80 3e 7e c3 1c bd a2 44 c8 bd
       -0.14941084 0.25103718 -0.038272373 -0.09778716
000050 22 20 1c be 6c 7a ff 3b 95 f2 0a 3e c5 db 69 3e
       -0.15246633 0.0077965762 0.135691 0.22837742
000060 b7 d3 00 be ae c5 56 be 31 74 c2 be 6e 13 6b 3e
       -0.12580763 -0.20973846 -0.37979272 0.2295663
000070 97 8c 42 3e b9 80 85 3e 53 06 9e 3e cb 86 1e 3e
       0.18998943 0.2607477 0.308642 0.15481107
000080 5d d2 0c 3e 14 4d 13 3e c4 3c 90 3c b9 f4 d1 3d
       0.13752122 0.14384872 0.0176071 0.10251755
000090 09 ca 6d 3d a5 a3 80 bd 7f fc 43 bc bd 8d ae be
       0.058054004 -0.06281213 -0.011962055 -0.34092513
0000a0 84 92 65 be 39 a3 47 be 28 ca 45 3e 56 3e e9 3d
       -0.22419173 -0.19495858 0.19315398 0.11388843
0000b0 47 df c2 be 4a 66 cc bd b4 b7 0d 3e 5a 7b 75 be
       -0.38060972 -0.099804476 0.13839608 -0.23972836
0000c0 67 c7 5d 3e 3e bb 6e be bc 35 e2 3c 05 9b 43 3b
       0.21658097 -0.23313615 0.027613513 0.0029847038
0000d0 af 0a e2 bd 13 f8 51 bd 0f 67 9c 3e bf b4 80 3e
       -0.11037194 -0.051261973 0.30547377 0.25137898
0000e0 c4 d7 af 3c 10 e6 46 3e 16 9f 2e be f5 51 63 3d
       0.02146519 0.194237 -0.17052874 0.055498082
0000f0 c5 a5 8a be d3 16 e9 3c 11 88 65 3c ba 70 6d bb
       -0.27079597 0.028453266 0.014009492 -0.003623052
000100 c2 2d da 3d 8f 4b 10 3d fd 83 a6 3d de 8f 9d 3d
       0.10653259 0.03522831 0.081306435 0.07693456
000110 53 ef b6 be 6a 7e a7 3e af 55 cd 3d 0c 2b 80 be
       -0.35729465 0.32713634 0.100261085 -0.25032842
000120 0d 99 1a 3e bb bc 8e be 2e f9 2e be 54 16 79 3e
       0.15097447 -0.27878365 -0.17087242 0.24324924
000130 b0 ac 86 be c5 69 86 be d2 81 b2 3d 2b 25 99 3d
       -0.26303625 -0.2625257 0.087161675 0.07477792
000140 de e2 bb bd fe d9 98 3e ce 18 12 3e 7d 6c 82 be
       -0.09174131 0.29853815 0.14267275 -0.25473395
000150 af c2 4c be 72 cd 82 bd c1 a1 b5 bc 29 44 92 bd
       -0.19996141 -0.06386842 -0.022171857 -0.07141907
000160 7e 1a 3c bd d3 e5 8e 3e b8 cc 82 be 98 90 76 be
       -0.045923702 0.27909717 -0.25546813 -0.24078596
000170 c5 14 98 bd f1 49 8a be 5b 22 f4 3b 15 d4 80 be
       -0.074258365 -0.27009538 0.0074503846 -0.25161806
000180 10 d3 17 be c1 f9 9c bd 77 05 4d 3e a2 cb a5 3d
       -0.14826608 -0.07664824 0.20021616 0.080954805
000190 94 da a6 3d 63 52 34 3d 22 ab f1 bc 80 28 1a be
       0.08147159 0.044023883 -0.029500548 -0.15054512
0001a0 5b d2 65 3e 26 3f 84 be 7b a1 f3 bc 9f 6a 40 3c
       0.22443525 -0.25829428 -0.029740086 0.01174417
0001b0 25 2b f4 3d 72 92 a5 bd 46 f1 0e 3c 23 e1 10 be
       0.11922292 -0.08084573 0.008724516 -0.14148383
0001c0 c5 9b cd 3c c4 c3 08 3c 44 9c c4 3d d3 2f f9 3b
       0.02509869 0.008347455 0.09600118 0.007604578
0001d0 56 5e 4d be 24 fb 3b 3d 51 24 3a bb 81 ef ae 3d
       -0.20055518 0.045893803 -0.0028402994 0.085417755
0001e0 94 0f 6c be 47 d8 2d bd 0a 30 07 be a1 9f 46 be
       -0.23052818 -0.042442586 -0.13201919 -0.19396831
0001f0 02 90 65 bd 6f 90 d2 3d 55 ca 91 bd 45 29 a9 bd
       -0.05604554 0.10281455 -0.0711867 -0.08259825
000200 fa fd 36 3e c1 af 79 be 50 81 9a 3d d5 c6 f3 3d
       0.17870322 -0.24383451 0.07544196 0.119031586
000210 9c 79 f7 bb f1 0e 2b be 0d 0a 54 3e d8 72 63 be
       -0.0075523388 -0.16704918 0.20706959 -0.22211778
000220 0e df 25 be 87 4b 64 3e f4 ad 08 be 77 8e e3 3d
       -0.1619837 0.22294436 -0.13347608 0.111111574
000230 b7 41 03 3e 1d 97 1f be 55 51 58 be 03 16 a3 be
       0.12818037 -0.15584989 -0.21124776 -0.3185273
000240 f6 f6 29 3e 58 bc 02 3e 2c 11 07 bc 68 45 4d 3d
       0.16598114 0.1276716 -0.00824384 0.05011502
000250 47 56 45 3d a0 93 12 3e 07 e3 0d 3e 00 43 3e 3e
       0.048177984 0.14314127 0.13856135 0.18580246
000260 6e c0 aa bc 57 4d 0e 3c 31 c6 09 3e 7e 0a f3 3d
       -0.02084371 0.008685431 0.1345451 0.118672356
000270 0d 16 23 3d 3e 29 0f 3e bf 51 a1 3c 19 b8 e3 3c
       0.03981595 0.13980576 0.0196923 0.027797746
000280 8e 7c c4 bd 22 00 cd bc a3 06 48 bd 22 d0 20 3d
       -0.095940694 -0.025024477 -0.048834454 0.03926099
000290 3f c9 4e 3c 72 fc 80 3c 13 7f e4 bd 8a cd 0c bd
       0.012621223 0.015745375 -0.1115705 -0.034375705
0002a0 c3 32 11 3e 55 6f 51 3e 42 a4 03 3d 56 0a d2 bd
       0.1417952 0.20452626 0.03213907 -0.10255878
0002b0 27 9f 7b bd 35 c7 44 3d 31 ad 7c 3c 30 dd 5a be
       -0.061431076 0.04804154 0.015422151 -0.21373439
0002c0 99 e8 06 be 3d b7 ea bd a9 1b a2 3c 22 27 a4 bd
       -0.13174666 -0.11460731 0.01978858 -0.080152765
0002d0 b4 a2 a2 bc b7 f7 c1 bb 60 26 37 3d af 55 87 bd
       -0.019852974 -0.0059194225 0.04471433 -0.0660814
0002e0 fd e0 30 bc a0 77 49 be 80 1a b2 3d 8b d0 01 bb
       -0.010795829 -0.1967454 0.08696461 -0.001980814
0002f0 1e 5a df bc ad 27 3e be 63 81 80 bd e2 5f 64 be
       -0.02726465 -0.18569823 -0.062746786 -0.22302201
000300 26 bf cd bd 47 a4 35 be c0 f2 68 bd 37 24 5f bd
       -0.10046224 -0.17738448 -0.05687213 -0.054477897
000310 36 2f c1 bd 98 60 d6 bb a3 4c c3 3d fe 9f d7 bc
       -0.09432833 -0.0065422766 0.09536102 -0.026321407
000320 60 4c 2c be 66 6a 54 be c4 2c 22 3d 49 18 81 bd
       -0.1682601 -0.20743713 0.039593473 -0.0630346
000330 83 3b 8d bc 57 d5 f9 bd 5d e6 59 bc 61 26 e9 bc
       -0.017240291 -0.121988945 -0.013299552 -0.028460683
000340 d8 02 1a 3d c1 f2 ef bd 2b 54 a4 bd 5e 25 af 3c
       0.03760037 -0.117162235 -0.08023866 0.021380123
000350 1a fd f8 3c 18 b2 e0 3d 1a 43 3b 3d 00 74 1f bc
       0.030394126 0.10971469 0.04571829 -0.009732246
000360 25 d4 93 3d d3 cf 4b 3d 9a 13 32 3c ed 5d 98 be
       0.07218198 0.049758743 0.010868931 -0.2975916
000370 29 2d 06 3d c4 c5 e1 bc b7 b5 7c be 5c 19 ab bd
       0.03275791 -0.027560122 -0.24678694 -0.08354446
000380 c5 d6 b4 3d 43 ac 04 3e b5 95 0c bd d6 63 1d 3e
       0.088300265 0.12956338 -0.03432246 0.15370116
000390 15 aa 05 3e c3 8a 28 3e db 15 96 3b cc 09 45 3e
       0.13053162 0.16459183 0.004580242 0.19242018
0003a0 ca 77 8c 3b 3c f0 83 3e 65 8d d0 3c a8 ae d7 bc
       0.004286741 0.25769222 0.025458047 -0.0263284
0003b0 46 60 85 bd d0 97 56 3d 9e 56 66 3e 36 c2 c0 bd
       -0.06512503 0.052390873 0.2249398 -0.09412043
0003c0 10 2c dc 3d b7 a5 09 be 53 b0 14 be 61 97 ee 3c
       0.10750592 -0.13442121 -0.14520387 0.029124917
0003d0 60 f1 84 3d f7 b7 d5 3c 67 9e 93 3e 53 17 a1 bd
       0.06491351 0.026088698 0.2883179 -0.07865777
0003e0 da 62 10 3d d6 14 b8 3d 04 1f 18 3e c6 c2 19 3d
       0.035250522 0.08988349 0.14855582 0.037539266
0003f0 9a be 8c bd a0 c6 4c bd 48 82 79 3e 60 b5 2f 3e
       -0.06872292 -0.04999411 0.24366105 0.17159033

onnx::Conv_138 f4 [8]
000000 f8 ba c2 bc cb 91 61 3f 0c 2f 04 3e a4 d7 ad be
       -0.023770794 0.8811309 0.12908572 -0.33953583
000010 4f a6 14 3f 86 3d bb 3d c2 9f 2f 3f f7 b7 0f bf
       0.58066267 0.09142594 0.68603146 -0.56140083

onnx::Conv_140 f4 [8, 4, 1, 1]
000000 42 61 1d 3f a0 ed 14 3e 24 db 86 be 17 37 96 3e
       0.6147653 0.14543772 -0.26339066 0.29338905
000010 8e 7c 3f be 4e 85 01 bf 44 48 85 be 3a 21 17 be
       -0.18699858 -0.5059403 -0.26031697 -0.14758769
000020 2c 2a 07 3f 58 ce f2 3e 2c 57 98 3e fa 4d d1 bd
       0.52798724 0.47423053 0.29754007 -0.10219951
000030 81 95 f1 be b7 2a 42 be 41 3d 2f bf f8 92 5c be
       -0.47184375 -0.18961607 -0.6845284 -0.21540439
000040 fc 6e 36 3d 2c 6f c9 be 08 21 25 be 46 c4 f9 be
       0.044539437 -0.3934263 -0.16125882 -0.48782557
000050 58 9f 42 be f4 62 10 bf 5c 49 f0 be c4 e4 e0 bd
       -0.19006097 -0.5640099 -0.4693097 -0.109811336
000060 b2 21 a9 3e d0 8b 00 be 18 08 4f bf 97 f8 2b bf
       0.3303352 -0.12553334 -0.80871725 -0.67176193
000070 41 2d 75 bf ce 5e b5 be 9b d4 34 3f 58 e7 0f 3f
       -0.95772177 -0.35423893 0.7063691 0.5621238

onnx::Conv_141 f4 [8]
000000 b3 24 ad be 91 9e 24 3f 79 87 3f bf df e4 59 3f
       -0.33817062 0.64304453 -0.7481609 0.85114855
000010 a5 cf 0c 3f 4f b4 57 3f d0 98 41 3f b8 21 97 3d
       0.5500434 0.84259504 0.756238 0.07379478

onnx::Conv_143 f4 [16, 8, 3, 3]
000000 e6 d6 f5 3d 9a 00 12 be 39 ac 29 3e d4 ea 70 3e
       0.12003879 -0.14258042 0.16569604 0.2352708
000010 fe 62 ab 3d c7 3b 9c be e0 5b 94 3d 44 4b 8f 3e
       0.08368491 -0.30514356 0.07244086 0.2798711
000020 7e 20 0b be 33 8d 9b be e6 6a af be d8 8f 05 3d
       -0.13586614 -0.30381164 -0.34261245 0.032607883
000030 a9 7d 1d be 21 06 41 be 66 39 6e 3e 90 cc 43 3d
       -0.15379967 -0.18849994 0.23264083 0.047802508
000040 7a a6 2a be 4f 9f ef 3c 69 e9 82 be 2e 61 18 3e
       -0.16665068 0.029250769 -0.25568703 0.14880821
000050 04 54 a3 3c 61 5d 77 3e cf 8c 3a be 6a f5 14 3e
       0.019937523 0.24156715 -0.18217777 0.14546743
000060 5a 99 01 be 28 98 07 be 47 7b 08 be 0b 09 4b 3c
       -0.12656155 -0.13241637 -0.13328277 0.012392293
000070 78 fe 4c bd 87 f7 33 3e 63 a3 42 3e 47 44 d3 bd
       -0.050047368 0.17574893 0.1900764 -0.10315757
000080 39 1b c9 bd 9b 42 c2 bd bd ce b3 bd 42 05 e2 bd
       -0.098196454 -0.0948536 -0.087796666 -0.11036159
000090 d2 39 e6 be b2 93 83 3d a6 07 2e bd 78 c5 95 bd
       -0.44965988 0.06424655 -0.042487763 -0.07313055
0000a0 86 2b 1f 3e 50 22 ed 3d 38 5e b4 3d c0 bc 0c be
       0.15543947 0.1157881 0.08807033 -0.13743877
0000b0 ab 77 cb bc 4c 10 80 3e 82 08 0a be 65 7a cb 3b
       -0.024837336 0.25012434 -0.13479808 0.006209659
0000c0 8e 46 5c be 63 34 89 be 91 90 41 3e d8 c3 e9 bd
       -0.2151129 -0.2679778 0.18902804 -0.11414307
0000d0 f8 b1 44 3e 04 57 f8 3d 1b 25 19 3e 1a 1e 81 be
       0.19208515 0.12125972 0.14955561 -0.25218278
0000e0 49 a3 94 bd ba e0 a7 3e b8 dc 46 3c 7f 69 7c be
       -0.07257707 0.3278864 0.012137584 -0.24649619
0000f0 c3 f1 f4 bc bf 73 14 be a0 23 1a 3d 0a 64 09 bd
       -0.029900437 -0.14497279 0.03763163 -0.03354267
000100 2f 93 7b be cd 34 61 be eb 5d 57 3e a8 90 59 be
       -0.24567865 -0.21992798 0.2103192 -0.21246588
000110 d6 63 28 be 30 2d 9d 3d 25 4b a1 bd 9d 9f 9e be
       -0.16444334 0.076746345 -0.07875661 -0.3098115
000120 b5 e2 b5 3d 67 07 a8 be 55 5c 9c bd 45 58 32 3e
       0.088811316 -0.32818148 -0.076347984 0.17416485
000130 47 b3 ee bc e2 53 38 be 79 fd 43 be af e9 26 3e
       -0.02913822 -0.18000749 -0.19139661 0.1630008
000140 46 0c 15 bd 2a 2c 8e 3e 63 6c 01 3d 02 20 6d 3d
       -0.036388658 0.2776807 0.031597506 0.057891853
000150 cd b1 49 3e af ba 18 be 22 42 29 3e b1 9f 28 3e
       0.19696732 -0.14914964 0.16529134 0.16467167
000160 24 3c 08 bc f4 13 98 be e0 eb b0 3d a4 c7 67 be
       -0.00831512 -0.29702723 0.086387396 -0.2263475
000170 54 e3 c0 3d 60 c8 29 3d 5c d0 d9 bc 2a ba 75 3e
       0.094183594 0.041450858 -0.026588611 0.23996797
000180 b8 56 65 bb e1 e5 9d 3e a4 b2 e1 bb 8f 06 09 be
       -0.0034994315 0.30839446 -0.0068877507 -0.13381408
000190 a2 7d 9e 3c ac 27 e5 be b4 af 18 3d 11 c3 c7 3e
       0.019347016 -0.4475683 0.03727694 0.3901601
0001a0 5d 63 34 3e 01 4d b2 3d c0 17 0d 3d cc 94 e5 bd
       0.17616029 0.087060936 0.034446478 -0.112100214
0001b0 28 5a 0a bd 18 8c 8e bd 4b 0e 04 bf 3d 12 da 3d
       -0.033777386 -0.069603145 -0.5158431 0.1064801
0001c0 ef fc 52 be cc f1 0c be 31 88 67 3e 24 30 67 be
       -0.20604299 -0.13764113 0.22610547 -0.22576958
0001d0 a1 08 0d 3e 14 66 20 3e e0 d3 aa 3e 34 26 d3 bd
       0.13772823 0.1566394 0.33364773 -0.10310021
0001e0 bb 24 49 3d 4b 18 e2 3c d1 00 8a 3e 08 39 7f 3e
       0.049107295 0.027599474 0.26953748 0.249241
0001f0 20 13 43 be b0 7d a0 bd 36 23 f9 be 57 34 80 be
       -0.19050264 -0.07836473 -0.48659676 -0.25039932
000200 ea b3 8f 3d 3e b8 da bd 87 8a 48 3d 5f a9 4d 3c
       0.07016738 -0.10679673 0.048960235 0.012552588
000210 a1 cd 88 be c0 09 b1 be ba 9b f3 bd fe af 84 bc
       -0.26719382 -0.3457775 -0.11894937 -0.0161972
000220 41 43 90 3d f4 69 70 be 83 47 8b bd 0b 31 00 be
       0.07044078 -0.23477918 -0.06800749 -0.12518708
000230 ee 74 e3 be 1c cb 28 3e 5d be 07 3e f3 99 9c be
       -0.44425148 0.1648373 0.13256212 -0.30586204
000240 6e d7 94 3e fa 72 81 bd a5 83 b2 bd d5 72 45 bb
       0.2907061 -0.06320758 -0.087165155 -0.003012826
000250 b0 11 6c 3d 56 aa 35 3d 1e a3 27 3e fa e6 85 3c
       0.057634056 0.044351898 0.16370818 0.01634549
000260 8a 52 a1 3d ac 40 f2 bd 1e cb 53 bd 95 42 de bd
       0.07877071 -0.118287414 -0.05170738 -0.10852543
000270 66 46 83 3e af 79 e6 bd 2a 0e ff 3c b2 69 52 3e
       0.25639647 -0.11253678 0.031134684 0.20548132
000280 bc e2 09 be d7 05 95 3d 9b 23 32 be a1 22 a5 bd
       -0.13465399 0.072765045 -0.17396395 -0.080632456
000290 30 73 b5 3c e3 84 1b 3e b7 6e 2d bd fa 41 3f 3e
       0.022149652 0.15187411 -0.042341914 0.18677512
0002a0 da 72 ca bd d4 05 38 be 23 f1 92 3d 9e cb 0f 3e
       -0.098851874 -0.17970973 0.071748994 0.14042518
0002b0 05 39 80 3e f9 b4 ca 3d 4a f4 6b be 99 d1 28 be
       0.25043502 0.09897799 -0.23042408 -0.16486205
0002c0 3a 7e bb bd 3c c7 1d 3e e7 af c3 3e 3f a9 18 3e
       -0.09154935 0.15408033 0.3822014 0.14908312
0002d0 dd f6 fe 3d 2c 90 b7 3d cd a3 6f 3b 3c 7e 48 3e
       0.12449429 0.089630455 0.0036566139 0.19579405
0002e0 76 cc b5 bc f4 90 26 3d 17 9f b4 bd dd a7 c1 3c
       -0.022192221 0.04066558 -0.088194065 0.023639614
0002f0 9a 46 fd 3b f8 c1 68 be fa a5 22 3e 07 17 b3 3e
       0.0077293636 -0.22730243 0.15883628 0.34978506
000300 01 c7 d2 be a5 f0 35 be 2c cc 39 3d 00 4c e8 3d
       -0.41167453 -0.1776758 0.04536073 0.11342621
000310 c5 72 06 bc 81 a1 a6 3d d7 99 a4 be 8e b6 cf 3d
       -0.008206074 0.08136273 -0.3214862 0.101422414
000320 5c cf fd bc 67 cb cc bc bb a2 12 be 49 11 e5 bd
       -0.030982666 -0.024999334 -0.14319889 -0.111849375
000330 26 d1 b5 3d 2e 35 c6 3d 6d e6 b2 3b 8b f1 53 3e
       0.088777825 0.09678112 0.005459598 0.2069761
000340 c4 04 64 3e ac eb 61 3d 59 83 3c 3e 79 1e de 3c
       0.22267443 0.055156395 0.1840948 0.02711414
000350 63 90 39 3e 8f 25 52 3e d1 e8 a7 3d 34 1f a7 bb
       0.18121485 0.2052214 0.08198703 -0.0051001552
000360 d2 50 54 3e 86 be 98 3c 51 4a 66 be 25 1f 68 bd
       0.20733956 0.018645536 -0.22489287 -0.056670327
000370 e9 9a 37 3e 99 26 61 be 02 54 ef bd ae 96 38 3e
       0.17930187 -0.2198738 -0.11685945 0.1802623
000380 f9 89 88 bd a1 12 80 3d a4 3d 5b be c1 d9 d3 bd
       -0.06666941 0.06253553 -0.21410233 -0.10344268
000390 ab b1 6b bd 3f e2 23 bb c7 51 36 be 79 1f fc 3d
       -0.057542484 -0.002500668 -0.17804633 0.123106904
0003a0 d2 92 26 3e 43 7f 2e bc ce 5a c9 3d 55 2c 8a 3e
       0.16266945 -0.010650459 0.09831773 0.26986948
0003b0 f8 08 1c be cb 05 e3 3d b6 95 25 be 7f 02 73 3d
       -0.15237796 0.11085089 -0.16170391 0.059328552
0003c0 c2 52 38 3b fb 51 0b 3e 39 9e 7f 3a 3d 00 82 3e
       0.00281255 0.13605492 0.0009751055 0.25390807
0003d0 89 7a 08 3e e4 6d 3a 3d 14 e8 e7 3d ea c4 1c be
       0.13327993 0.045514956 0.11323562 -0.15309492
0003e0 2b 14 25 be a6 5e 12 3d c9 7c 4f 3e 50 21 c0 bd
       -0.16120975 0.035734795 0.20262446 -0.09381354
0003f0 d6 8d a6 3c e3 77 1d 3e 85 27 58 3e d4 d1 f2 bd
       0.020331305 0.15377764 0.21108826 -0.11856428

onnx::Conv_144 f4 [16]
000000 73 ae 59 3f 9f 8c 3f 3f 69 72 17 bf 4d 0c 09 be
       0.85031813 0.74823946 -0.5915895 -0.13383599
000010 86 3c 4a be e1 88 a6 be f2 22 bb 3e ac 00 16 3f
       -0.1974965 -0.32526305 0.365501 0.58594775
000020 4b c2 0d bf f8 de 10 be 64 92 90 3f 01 c3 80 bf
       -0.5537459 -0.14147556 1.1294675 -1.005951
000030 8c 8a 2d 3e 2d 8a d5 be 18 4a ea 3e 84 4e 4a 3f
       0.16947383 -0.41706982 0.45759654 0.79026055

onnx::Conv_146 f4 [16, 16, 3, 3]
000000 be 17 31 be 30 fd 14 be 01 cd db bc a0 0c b1 be
       -0.17294213 -0.14549708 -0.026831152 -0.34579945
000010 9c cd 24 be ac bd 89 3b 25 3d 93 3b fe 9f f5 3a
       -0.16094059 0.004203519 0.004493373 0.0018739698
000020 d0 5b 0c 3e 38 59 7b 3e 8c a9 9c 3d 59 b2 fc 3d
       0.13706899 0.24545753 0.07649526 0.123387046
000030 9c 0d 92 bc ed 7e 98 bd cf 32 e2 3d 92 a1 cd 3d
       -0.017828755 -0.07446084 0.11044847 0.10040583
000040 f3 f7 bc bc ae a6 d5 3d aa bf b6 be a5 f2 a7 bc
       -0.02306745 0.10432182 -0.35693103 -0.020501444
000050 8a 13 9f be 2f db 64 bb 88 b1 2b 3d 83 e6 83 be
       -0.31069595 -0.0034920683 0.041917354 -0.25761804
000060 71 b8 44 3d b9 07 1f be b8 f3 21 be eb 15 37 be
       0.04802746 -0.1553029 -0.15815628 -0.17879455
000070 ff 24 d1 be a3 4e 9b 3d 1b 79 a6 be d2 0a 98 be
       -0.40848538 0.07583358 -0.3251427 -0.29695755
000080 34 3d 41 be 90 16 d6 be a4 e5 10 bd 7f 49 20 be
       -0.18871003 -0.4181409 -0.035375252 -0.15653037
000090 0d 31 86 bd db 8d 82 be 5d b4 60 be 5d dc 02 bd
       -0.065523244 -0.25498852 -0.21943803 -0.031948436
0000a0 cc a5 c7 bd 80 6a e5 bd 27 05 99 3e 62 51 c0 bd
       -0.0974842 -0.11201954 0.29886743 -0.093905225
0000b0 f0 13 53 bd c8 e9 78 be 0c 6f e0 bd ae 2a a2 bc
       -0.051532686 -0.2430793 -0.109586805 -0.019795742
0000c0 d8 c8 1f 3c 47 c0 81 bc 17 5e 53 bb e9 5c 3c be
       0.009752475 -0.015838755 -0.0032252127 -0.18394817
0000d0 23 25 b2 3d 2e 26 4a 3e 9d 95 e9 3d d9 fb f2 3d
       0.086984895 0.19741127 0.114054896 0.118644424
0000e0 b9 b8 b8 3e 45 da 21 3e 67 d4 49 3e 9a 9d 87 3d
       0.36078432 0.1580592 0.19709931 0.06621857
0000f0 1a 34 67 3e 2b c2 fc bd 57 24 07 3d a2 11 ee 3d
       0.22578469 -0.12341722 0.03299364 0.11624457
000100 20 f1 bb bd 7e e9 85 3d 2e 8f df 3d 6a cc 82 3c
       -0.0917685 0.06538676 0.10915981 0.015966613
000110 b2 3b a0 3e 89 3c b2 3e 3b 75 cd 3d ed e6 64 3e
       0.31295544 0.3481181 0.100321256 0.22353716
000120 d7 f7 7a be 7f d9 2c be db 08 d9 bd ce fc c4 bd
       -0.24508606 -0.16879843 -0.10597392 -0.09618531
000130 0d 30 bb bd 01 1c 03 be 80 97 56 be f7 91 5b be
       -0.09140024 -0.12803651 -0.2095623 -0.214424
000140 d8 79 f5 3c 6c ee 9e 3d b8 80 1b 3d 35 d3 4c be
       0.029965326 0.07760319 0.037964553 -0.20002444
000150 39 75 e5 bd 64 59 d7 bc 40 5a 70 3e b6 89 14 be
       -0.11203999 -0.026287742 0.23471928 -0.14505658
000160 e8 30 69 3d 7e d0 93 bd 90 5f 92 be 65 5b 55 bd
       0.056931406 -0.07217501 -0.28588533 -0.052089114
000170 de 36 c7 bd 4b 97 56 be 2d ed 64 3d 06 6a 7b 3d
       -0.09727262 -0.20956151 0.05589025 0.06138041
000180 6b 43 4a be 37 dc 82 3d c4 fb 7c 3d 04 1b 39 be
       -0.1975228 0.06389659 0.06176354 -0.18076712
000190 a6 7e aa 3d c7 13 0f be 2d 32 1f 3d 6e ab 20 bd
       0.083249375 -0.13972388 0.03886621 -0.039225988
0001a0 24 2f bd bd 22 27 78 bd 8c 3d a2 bd 1f 01 d3 3c
       -0.09237507 -0.060584195 -0.079218954 0.02575737
0001b0 03 0e 43 3e 6e d6 89 bd 77 86 0f be 6d a5 40 3e
       0.19048314 -0.06730352 -0.14016138 0.18813105
0001c0 c8 3c 47 be 67 1b a8 bd 55 e1 0d 3e b2 41 b6 bd
       -0.1945678 -0.082083516 0.13855489 -0.08899249
0001d0 28 29 99 bd da 05 86 be 5e 88 cf bd a8 c3 bb ba
       -0.07478553 -0.2617634 -0.10133432 -0.0014325278
0001e0 fc 98 6e be 7f 6c b4 b9 c3 32 b6 3d 7a ff d3 be
       -0.23300546 -0.0003441311 0.08896401 -0.4140585
0001f0 2b 13 27 bd ac 82 b2 be 43 f6 0d bd cc ac 87 be
       -0.040789764 -0.3486532 -0.03465868 -0.2649902
000200 aa b1 0f be ef 98 a0 3c db 40 6c bd 59 0f 9d be
       -0.14032617 0.019604174 -0.05767904 -0.30675772
000210 73 16 fb bd 50 64 f8 bd 5c ec 9c be 93 03 4f 3e
       -0.12260141 -0.12128508 -0.30649078 0.20216207
000220 1a 81 ca 3e d1 48 b2 3e 06 ae 56 3e b2 f5 c5 3c
       0.39551622 0.3482118 0.20964822 0.024165008
000230 2e 83 e8 3d e4 cd 4c 3d bf 12 21 3e e3 b5 c6 3e
       0.113531455 0.05000104 0.15729807 0.38810644
000240 ff ae 67 be 9d 1a 6a bd 90 4c 5a be fa 3d c6 be
       -0.2262535 -0.057154287 -0.21318269 -0.3871916
000250 b4 24 7a be 22 42 66 be fb 4a e7 3d 39 f0 c5 3d
       -0.24428064 -0.22486165 0.11293598 0.096649595
000260 1a 16 a7 3d 86 95 21 3e bb c7 c7 be f9 53 b3 be
       0.081585124 0.15779695 -0.3901957 -0.35025004
000270 a6 1f 49 3b 99 76 44 be 6e 17 f0 bd e6 74 1b be
       0.003068903 -0.19185866 -0.11723219 -0.15181312
000280 b6 dd e9 3c 56 c7 72 3d ed 10 31 be 1e eb 38 be
       0.028548103 0.059272133 -0.17291613 -0.1805844
000290 10 6c 97 be 47 6d 14 b9 63 bf 22 be fc 59 8e be
       -0.29574633 -0.00014155089 -0.1589332 -0.27803028
0002a0 37 95 29 be 2c 79 1f 3d be ff 23 be 1d 56 6a be
       -0.16560827 0.038933918 -0.16015527 -0.22884412
0002b0 98 36 34 bd 24 8f 38 3d 01 4a cf 3d 7a fc f6 bd
       -0.043997377 0.045058385 0.10121537 -0.12059875
0002c0 a0 7e 0d bd 5c 24 8c be ea 19 e1 bd 57 17 80 3e
       -0.034544587 -0.2737149 -0.10991271 0.25017807
0002d0 dd 71 79 3e e6 d7 57 bd 66 41 95 3d 62 de dc 3e
       0.24359842 -0.05269613 0.072878644 0.43138415
0002e0 07 d8 ff 3c 70 ec 36 bd fb 83 01 be 18 28 02 be
       0.03123094 -0.044659078 -0.12648003 -0.12710607
0002f0 9d c7 33 3e 60 87 4f 3d 09 00 1b be 66 11 68 bd
       0.17556615 0.050666213 -0.15136732 -0.056657217
000300 c4 6b c5 bd 30 37 9e bd 6c 2d 5c bc ff 63 7d be
       -0.09639695 -0.0772537 -0.013438564 -0.24745177
000310 7c cc 8a 3c d9 1f a4 bc 86 90 f4 3e 15 d0 61 3e
       0.016943209 -0.020034717 0.47766513 0.22052033
000320 22 4f b2 3e 11 a5 3a 3e f7 a6 2a 3e e2 55 f3 3d
       0.34826 0.1822703 0.16665255 0.11881615
000330 c9 90 54 3d b4 0b 85 be de 7f 2d be b4 62 0c be
       0.05189589 -0.2598549 -0.16943309 -0.13709527
000340 e3 b4 9e be 3d 28 c5 be 8b 90 0f 3e d0 cf b1 3d
       -0.3099738 -0.38507262 0.14019983 0.08682215
000350 b3 10 4e bd 1b ce a2 3d b5 f3 05 3e c3 26 49 3e
       -0.050308894 0.07949468 0.13081248 0.19643693
000360 ea 27 76 bd 0e 9f 88 be db bc 00 be 19 b6 1d be
       -0.06009666 -0.2668385 -0.12572043 -0.15401496
000370 68 cd 64 be 9f 92 45 be 78 ea c2 3c 4b 28 a2 bd
       -0.22343981 -0.19294213 0.023793444 -0.079178415
000380 62 fe e8 bd ae ae 29 be 8b d5 79 3b 3a ba b9 3d
       -0.11376645 -0.16570541 0.0038121666 0.09068723
000390 69 bb a5 bb 39 b7 0e bc 9f 4c 55 3e 14 f9 6b 3d
       -0.0050577414 -0.008710676 0.2083001 0.057610586
0003a0 b8 54 62 3e 42 81 f2 3d 58 f5 86 be 6a 5a 1a 3e
       0.2210263 0.1184106 -0.26359057 0.15073553
0003b0 1d 8c 8b 3d ca a7 e0 be 99 cf 0a be ef fe 1e be
       0.06813834 -0.43878013 -0.13555755 -0.15526937
0003c0 95 9b 58 3e d7 d2 85 bb 1a 8f 3f be ac f7 3f 3e
       0.211531 -0.004083972 -0.18706933 0.18746823
0003d0 18 a7 dd 3d 74 59 22 bd f0 35 65 3e 22 51 c7 3d
       0.10822886 -0.03963609 0.22383857 0.09732272
0003e0 68 22 24 be bd dd 2f be 08 11 7f 3d 84 c6 05 be
       -0.1602875 -0.1717443 0.0622721 -0.13064009
0003f0 d1 aa 80 3e a3 6b aa 3e cd ad da 3e 8e 85 ea bd
       0.25130323 0.33285245 0.42710724 -0.11451255

onnx::Conv_147 f4 [16]
000000 2a 74 8c 3f 20 6c 93 3f fa ed 15 bf 65 84 74 3e
       1.097295 1.1517372 -0.5856625 0.2387863
000010 9a 25 f3 3e f8 b5 b4 bf 01 2d a3 bf 9c 86 99 be
       0.47489625 -1.4118032 -1.2748109 -0.2998551
000020 c4 59 21 be 46 04 73 bf 2f 99 1e 3f a3 9f 34 3e
       -0.15756899 -0.94928396 0.6195249 0.17639022
000030 c0 62 94 bd 3d ec 40 3e 18 29 9f 3c 3f 2b 0e bf
       -0.072453976 0.18840118 0.019428775 -0.5553474

onnx::Conv_149 f4 [16, 8, 1, 1]
000000 7e 74 ad 3d dd 2c a0 be f9 50 2d 3e 33 e6 a3 be
       0.08469485 -0.31284228 0.1692542 -0.32011566
000010 8f 65 c7 3e f1 d8 be 3e 18 7c 16 bf 3f 09 77 bf
       0.3894467 0.37274888 -0.587831 -0.96498483
000020 a8 30 8f be 96 b7 43 3f 36 e7 85 be 68 40 b2 3e
       -0.2796681 0.76452005 -0.26152962 0.34814763
000030 6f 60 9b 3e bd 69 09 3f b4 95 19 be a2 c4 ef be
       0.3034701 0.5367697 -0.14998513 -0.46829706
000040 9d d5 c3 bc d2 f1 9b bf 56 1d 90 be ae 88 82 be
       -0.02390557 -1.2183173 -0.28147382 -0.25494903
000050 bb 64 8f be 3b b8 26 3f 19 c7 ca 3e b6 18 5a 3f
       -0.2800654 0.65124863 0.39605024 0.85193956
000060 b6 22 08 bd 65 bd 32 bf 70 51 b8 3e 54 15 69 be
       -0.033236228 -0.69820243 0.35999632 -0.22762042
000070 04 81 e1 3c f5 66 ba 3f 43 8c 4d be d3 63 aa be
       0.02752734 1.456267 -0.20073037 -0.33279285
000080 3e d8 90 be 68 55 13 3e f5 5c 31 3e 0c 3d 85 bf
       -0.2828998 0.14388049 0.17320617 -1.0409255
000090 dc 41 4d 3e 7d 1a 3b 3f 8e 47 47 3f fd 90 52 3f
       0.20044655 0.7308729 0.7784356 0.82252485
0000a0 bb 0e 83 3f cd 04 39 3f f6 dd 4f bf b5 44 85 be
       1.023887 0.7227295 -0.8119806 -0.26028982
0000b0 8e ea 8b be c6 98 ed be d7 36 cf 3e 94 e2 2d bf
       -0.2732739 -0.4640562 0.40471527 -0.67923856
0000c0 0a 63 57 3f 9d d2 08 be 45 c6 8a bf 20 8e 76 be
       0.84135497 -0.13361593 -1.0841757 -0.24077654
0000d0 b0 b9 53 bf 40 5b ea 3e b6 22 84 3f 53 38 8a 3e
       -0.8270521 0.45772743 1.0323093 0.26996097
0000e0 2d 86 00 bf 9b 0c 6a be 5c 76 10 3f a2 3f 9c 3c
       -0.50204736 -0.22856371 0.564306 0.019073311
0000f0 b4 61 ce 3d cf 90 52 bf fc 1f 92 bf 68 09 fc be
       0.10077229 -0.8225221 -1.1416011 -0.49225926
000100 c8 fc 0b 3f 7f a2 3e bc 2d b7 fc bd ff 70 19 3d
       0.5468259 -0.011635422 -0.123396255 0.037461277
000110 2f 5b 5c bc 4a 4c a7 bf 4f c8 ff be ce 18 2b be
       -0.013449474 -1.3070157 -0.4995751 -0.16708681
000120 d9 19 a4 3e 7b 86 95 3f f4 d6 26 3f 36 7f f8 3e
       0.3205097 1.1681665 0.6517174 0.48534554
000130 41 76 aa bd 69 af a3 bf 96 bd 93 3d de d5 a5 3e
       -0.083233364 -1.2787906 0.07213895 0.3238973
000140 2c 19 81 3e e2 61 5a 3e 21 84 44 3f 78 39 ac 3e
       0.25214517 0.21326402 0.7676411 0.33637595
000150 58 d9 07 3f 82 51 b9 3e ef 17 a4 bf cd e5 e7 bd
       0.53066015 0.36194998 -1.2819804 -0.11323128
000160 ba a6 2a 3e 3b b8 4e 3e c5 1f 08 3e 2a 70 52 bf
       0.16665164 0.20187466 0.13293369 -0.822024
000170 ab 1e 10 3f f0 c8 29 bf 02 cb 8d bf be 0b dc be
       0.56296796 -0.6632223 -1.1077578 -0.4297771
000180 d9 63 2b 3f 7f 3f b0 3e 98 3a 3f bf 19 16 10 3e
       0.6694923 0.34423444 -0.7469878 0.1407093
000190 ea 21 92 be da 7b 05 3f 39 1d 89 3f eb 55 01 be
       -0.285415 0.5214211 1.0712043 -0.12630431
0001a0 91 b2 49 bf d1 88 19 bf c6 78 11 3e 73 d0 cb be
       -0.78788096 -0.5997439 0.14206228 -0.39807472
0001b0 7a 6f 24 bf 25 85 74 bf 68 9a d3 be 00 19 52 bf
       -0.642326 -0.9551566 -0.4132874 -0.82069397
0001c0 f5 a7 96 be 9b e1 21 3f 8c 3a 05 bf ec e9 73 be
       -0.29425016 0.6323487 -0.5204246 -0.23819703
0001d0 2f 6b ec be d9 05 a6 3f a3 d5 9b 3d 31 cd 34 be
       -0.46175525 1.2970535 0.07609107 -0.176564
0001e0 95 7a 61 3e 9b 3d 60 3f 01 46 df 3e e4 bd 92 be
       0.22019418 0.87594 0.43608096 -0.286605
0001f0 e3 cd 95 be 37 12 aa bf b2 8f 68 3e d7 47 b6 3e
       -0.29258642 -1.3286809 0.22711065 0.35601684

onnx::Conv_150 f4 [16]
000000 e6 4e 49 3f 7e 1d 04 bf 01 26 96 3d 28 4d ee bd
       0.78636014 -0.516075 0.073314674 -0.1163581
000010 0f 6b 8b bf 35 6d 05 3e 20 21 f2 be 7f 80 f1 3f
       -1.0892047 0.1302994 -0.47290897 1.8867339
000020 63 b3 a4 3f c1 12 87 be 0e 04 dc bd 7d 89 9f 3f
       1.2867244 -0.26381496 -0.10742961 1.2463833
000030 39 a7 8f bf 16 c2 34 40 3c 98 05 bf 50 d4 b2 3e
       -1.1222907 2.824346 -0.52185416 0.34927607
