Assets/NeuralNetworkModels/model_size970_28_epochs18_batch6_seed17.onnx (onnx, 10597 bytes, 23 tensors)

fc.weight f4 [3, 6]
000000 2e eb 1c 3f ad 5e c1 be cc e6 f1 3e 0c 40 1c bc
       0.61296356 -0.37767544 0.47246397 -0.009536754
000010 d1 ca e7 be dc 03 26 bc 08 c2 b3 3e 67 eb a6 3e
       -0.45271924 -0.010132756 0.35108972 0.32601473
000020 8d a3 8b be 00 dc 39 be e5 8e ff 3e 10 40 c3 be
       -0.27273217 -0.1815033 0.49913707 -0.38134813
000030 1a 6e 0a bf 71 e7 ef be cd f0 19 bf 03 3c 32 3f
       -0.5407425 -0.46856263 -0.6013306 0.6962282
000040 28 73 71 bd 13 55 16 3f
       -0.058947712 0.5872356

fc.bias f4 [3]
000000 d7 67 f2 bd be cf 76 be 83 bb 93 3e
       -0.11836212 -0.24102685 0.28853998

onnx::Conv_116 f4 [1, 1, 3, 3]
000000 38 39 0b 3f 03 7b 94 3e d3 cb 9d 3f bb a5 e6 bf
       0.54384184 0.290001 1.2327827 -1.8019327
000010 01 92 2a c0 f7 79 21 bf e5 b1 17 bf d2 e4 ee 3e
       -2.6651614 -0.6307673 -0.5925582 0.4665895
000020 39 ce ce be
       -0.4039171

onnx::Conv_119 f4 [1, 1, 3, 3]
000000 fa 3a 22 bf d6 6f 2b bf 2c 5d be bd 97 fd 44 be
       -0.6337124 -0.66967523 -0.09295115 -0.19237362
000010 10 59 4f be 0b ce c0 3d 60 ab 85 be 34 1e 25 bf
       -0.20248818 0.094142996 -0.2610731 -0.6449921
000020 36 37 c3 be
       -0.3812806

onnx::Conv_122 f4 [1, 1, 3, 3]
000000 d1 53 9c 3e 7f 66 d6 3e d4 11 43 bf 51 94 ba bf
       0.30532697 0.41875073 -0.7619908 -1.4576513
000010 7f 3d 15 bf 4c 9a 99 bf 2d 78 96 bf 06 dc b2 3e
       -0.5829696 -1.2000213 -1.1755425 0.3493349
000020 23 74 b3 bd
       -0.08762386

onnx::Conv_125 f4 [2, 1, 3, 3]
000000 17 bd ba be 3e d6 e3 be 06 0a 06 3f e1 e5 17 bf
       -0.3647239 -0.4449939 0.52359045 -0.5933514
000010 b2 95 13 3f 40 97 5e be e7 95 12 3d e8 73 3c 3f
       0.5765029 -0.21737385 0.03578749 0.7361436
000020 91 ba cf 3e cc 1c 0f 3f c0 80 fb 3e 4c 3e 2b 3d
       0.40572026 0.55903316 0.49121666 0.041807458
000030 82 53 a0 be 91 fb b5 be 56 df 9c be 36 25 49 3e
       -0.3131371 -0.35543492 -0.30639142 0.19643101
000040 b8 25 e5 be cc 5e c2 be
       -0.4475534 -0.3796295

onnx::Conv_126 f4 [2]
000000 05 9b 09 bf 75 3c fa 3e
       -0.53752166 0.4887425

onnx::Conv_128 f4 [2, 2, 3, 3]
000000 5f 48 c8 3e 78 af 68 3e b0 01 09 be 34 97 4d be
       0.39117715 0.22723186 -0.1337955 -0.2007721
000010 01 9f 8b 3d ee 6a db 3e f9 bb 04 3f 11 4c 11 3e
       0.06817437 0.42855018 0.51849324 0.14189173
000020 78 a4 1a bb 1f 8b 00 bf 3c 83 02 be 67 48 0f 3c
       -0.0023596566 -0.5021228 -0.12745374 0.008745289
000030 8a b4 e0 be a2 87 48 3e 40 5d f6 be bd 5b f9 3e
       -0.4388774 0.1958299 -0.4811802 0.48702803
000040 28 55 45 be 00 96 1a 3e 6b a2 f7 be 49 66 8d bd
       -0.19270766 0.15096283 -0.48366103 -0.06904275
000050 aa e1 c0 be fb d1 e1 be dd 97 9f be 57 2c 73 bd
       -0.37672168 -0.44105515 -0.3117055 -0.059368458
000060 e7 f7 71 be 9a 86 70 3e c3 8f 04 3e 1b ea f5 bd
       -0.23629723 0.23488846 0.12945466 -0.12007543
000070 97 00 93 be 37 b6 c7 bd 34 28 12 bf 1a 8d bd 3d
       -0.28711388 -0.097515516 -0.57092595 0.092554286
000080 c7 73 b5 bd 15 3f a0 be c1 fb 06 bf ce 10 c9 be
       -0.088599734 -0.31298128 -0.52727896 -0.39270633

onnx::Conv_129 f4 [2]
000000 f2 35 1b 3d 04 92 c4 3f
       0.037893243 1.535706

onnx::Conv_131 f4 [2, 1, 1, 1]
000000 1f a3 96 3f f8 c0 89 bf
       1.1768531 -1.0762014

onnx::Conv_132 f4 [2]
000000 5e bc 37 bf ca 38 4e 3f
       -0.717718 0.80555403

onnx::Conv_134 f4 [4, 2, 3, 3]
000000 23 7e 49 3e fd d2 6a 3e b1 e7 64 be a2 25 83 3e
       0.19677024 0.22932048 -0.22354008 0.2561465
000010 dc 80 3d 3e ef ec 02 bf 2b b7 aa 3e e8 5a d2 bd
       0.18506187 -0.5114278 0.3334287 -0.10271245
000020 51 b1 dd bc d1 1a aa be f3 0c 10 3d eb c3 27 be
       -0.02706209 -0.33223584 0.0351686 -0.1638333
000030 34 d8 cc be 75 61 35 3e 11 d5 80 be 68 40 9a bd
       -0.400087 0.17712958 -0.25162557 -0.07531816
000040 32 e2 1f 3e 10 6a 06 bd 7e 50 e7 bd 88 83 13 bd
       0.1561363 -0.032815993 -0.112946495 -0.03601411
000050 59 6a 90 be 99 a7 68 3e 05 08 0a 3e 83 89 67 3e
       -0.28206137 0.22720183 0.13479622 0.2261105
000060 e1 39 4c 3e 99 0e 94 bd db 9a 5b bc a5 12 52 be
       0.19943954 -0.07229347 -0.01340362 -0.20514925
000070 20 4c 7b be bf 0e 33 bd 2b 33 69 be f6 49 90 be
       -0.24540758 -0.043715235 -0.22773425 -0.28181428
000080 db 13 99 3d 8b b2 56 3e ec 3b b4 bd 1f 69 8d bd
       0.0747449 0.20966546 -0.08800492 -0.06904816
000090 6c 58 a3 be a7 eb 9b 3e 8f 04 9d 3e b3 94 5b be
       -0.31903398 0.30453226 0.3066754 -0.21443443
0000a0 19 e7 db bd 20 46 20 3d ea 29 2c 3e 91 b9 d7 bd
       -0.10737438 0.039129376 0.16812864 -0.10533441
0000b0 46 cd c2 be 52 56 a8 be a9 7d c6 be fb c7 a5 be
       -0.38047236 -0.32878357 -0.38767746 -0.32379135
0000c0 01 42 af be d6 03 04 3e 0d dd 9a be 75 c2 2b 3e
       -0.34230044 0.12892088 -0.30246773 0.16773398
0000d0 cc 23 7a 3e 14 94 7d bd e4 06 60 3e c5 6b b9 3d
       0.24427718 -0.061908796 0.21877629 0.090537585
0000e0 e0 c6 b8 3d 30 b7 13 bf 4f 60 bd bd 13 ea 05 3e
       0.090223074 -0.57701397 -0.09246885 0.13077573
0000f0 18 96 d0 3c 95 8b 00 3d 2e f7 84 3e 9f 7a dc be
       0.025462195 0.031383116 0.25969833 -0.43062302
000100 e0 9f 8f be 2d 64 c0 be 5c 84 f3 bd 50 ba 6f 3e
       -0.28051662 -0.37576428 -0.1189048 0.23410916
000110 ac 49 e6 3d 2b b3 8b 3e 31 3e 5f be 0a 23 83 be
       0.112445205 0.27285132 -0.21801068 -0.2561267

onnx::Conv_135 f4 [4]
000000 a8 2c 8c 3e 05 ad be 3e 1a 5f 64 3f 51 74 eb 3e
       0.2737782 0.37241378 0.89207613 0.4598718

onnx::Conv_137 f4 [4, 4, 3, 3]
000000 88 a8 a4 be 25 c0 48 3e d8 10 0a 3e ab 69 00 3d
       -0.3215983 0.19604547 0.13482988 0.031350773
000010 f5 f1 a6 bd 15 93 7f bd e2 1e 90 be 51 b7 6f 3e
       -0.081516184 -0.062396128 -0.28148562 0.23409773
000020 6e 83 7d 3e 94 1b fb bc 22 0c bf 3e b1 09 10 3e
       0.24757168 -0.030652799 0.37313944 0.14066197
000030 7f e6 8e be b6 59 9c be 5f 6b d9 be cc c2 63 3e
       -0.2791023 -0.30537194 -0.4246473 0.22242278
000040 db 6c b4 bd 9b d2 bf be 55 7b 56 3e ce d5 77 be
       -0.08809825 -0.37465367 0.20945485 -0.24202654
000050 9b fc 88 be 12 12 c2 3d 30 d6 a0 be ea 38 04 3f
       -0.26755223 0.09476103 -0.31413412 0.51649344
000060 5b e6 ba 3d eb a6 bc be 1e bb 46 be 21 98 38 3d
       0.09125968 -0.36846098 -0.19407317 0.045066956
000070 af bb 2b be df 3e 52 3d 50 af dd bc da bf 19 be
       -0.16770814 0.05132949 -0.027061135 -0.15014592
000080 a5 71 26 be bc 23 40 3b 00 3e 8d 3e 94 30 7c 3d
       -0.1625429 0.0029318174 0.27586365 0.061569765
000090 0b 89 e9 3e fb 00 d6 3e 7a d6 c9 3c 12 ca d0 3d
       0.45612368 0.41797623 0.024638403 0.10194792
0000a0 61 03 4d 3d 75 94 21 bc 70 0a c0 3e 37 0b ad 3d
       0.05005205 -0.009862055 0.37507963 0.08449405
0000b0 c7 ff 7a 3e 9d ea 6f 3e 6f da d1 be d3 f2 0a 3d
       0.24511634 0.23429342 -0.40986964 0.03392298
0000c0 88 b7 bf 3e 42 6b bd 3e 26 de cb 3d 8d 2e 59 3e
       0.3744471 0.36995894 0.09954481 0.21209164
0000d0 11 b0 2c bd a8 26 41 3d b0 cc 89 3e 91 43 37 3d
       -0.042160098 0.047156006 0.26913977 0.04474217
0000e0 67 ae 0e 3e 52 94 12 3d f6 50 25 3d d9 c3 8d be
       0.13933717 0.03578598 0.040360413 -0.27688482
0000f0 65 02 2b 3e d1 f3 73 3e eb 39 fd 3d 6d 58 4b 3d
       0.16700132 0.23823477 0.123645626 0.049644876
000100 f3 af a3 bd 4a 29 3f be 54 ae 32 be 55 5f c7 be
       -0.07992544 -0.18668094 -0.17449313 -0.3893992
000110 28 7e 80 3a 41 36 8c be 81 11 cf be 83 48 a9 be
       0.0009803222 -0.27385142 -0.40443042 -0.33063135
000120 ac da 45 be e0 51 c2 3b 40 08 c6 be 02 e9 f1 bc
       -0.19321698 0.0059301704 -0.3867817 -0.029530052
000130 e5 bd b0 be 96 7b 62 be a6 d1 00 bf 02 92 68 3e
       -0.34519878 -0.22117457 -0.503199 0.22711948
000140 aa f0 d1 be 98 00 18 be 50 6f 98 3e 4c ba 22 3e
       -0.41003925 -0.14843976 0.29772425 0.15891379
000150 e7 27 87 bd f4 45 d1 39 f3 d8 1b be 0f d7 39 3e
       -0.06599408 0.00039915706 -0.15219478 0.18148445
000160 50 13 5e be 5b 2d 5f be 66 b7 4a 3c 1d f5 cc 3e
       -0.21687055 -0.21794645 0.012372827 0.40030757
000170 da c3 15 3f 56 2b 2f 3d cc c7 cd be ed 05 c5 bd
       0.5850197 0.042765938 -0.40191495 -0.09620271
000180 d9 96 d5 bd fa 35 62 be bd 49 59 3e f7 d8 e2 bc
       -0.104291625 -0.22090903 0.21219535 -0.027691348
000190 c5 1f 2b 3e 8e 8e d5 3e 63 e3 21 be 85 24 24 3d
       0.16711338 0.41710323 -0.15809397 0.04007389
0001a0 26 66 43 3e bf b3 1c 3e d2 a8 48 3e 5d 71 bd be
       0.19081935 0.15302943 0.1959565 -0.37000552
0001b0 9c f4 37 3e c5 b2 56 3d 6b ca bb 3e 2e 31 88 3e
       0.17964405 0.05241658 0.3667787 0.2660002
0001c0 8f e6 ca 3e 72 b4 0c be 8a b2 02 3f 6c d6 05 be
       0.39629027 -0.1374071 0.5105368 -0.13070077
0001d0 b6 71 14 be 4a a7 87 3e 33 fd b6 3d 5a 13 bc be
       -0.14496502 0.2649482 0.08935013 -0.36733514
0001e0 cd fb c9 3e c4 6d 73 bd 34 d7 97 3e 35 af 4c 3e
       0.3944992 -0.059430853 0.29656374 0.19988711
0001f0 2a f1 3a be b9 d5 c6 be 52 ca 8b 3e 6e 90 6d 3e
       -0.1825606 -0.38834932 0.27302796 0.23199627
000200 3d 01 9b 3d de d6 52 be c8 74 e5 bd 02 d7 5c be
       0.075685956 -0.20589778 -0.11203915 -0.21566394
000210 6c 6d 31 3e 07 6c 9b 3e 4b af 57 be 09 99 b8 3e
       0.17326897 0.30355856 -0.21062963 0.36054257
000220 70 03 24 3e 4e 4f 76 3d 3d a2 a3 be 1f e6 cd bd
       0.16016936 0.060134225 -0.31959715 -0.10053658
000230 36 e8 74 be 15 9d 90 be e9 56 56 3e 16 df e3 be
       -0.23916706 -0.28244844 0.20931591 -0.4450614

onnx::Conv_138 f4 [4]
000000 92 4c ec 3e 69 a2 1e bf 56 be b7 3e e8 45 10 bf
       0.4615217 -0.6196657 0.35887402 -0.5635667

onnx::Conv_140 f4 [4, 2, 1, 1]
000000 70 e9 fe 3e 1d ba 28 bf e6 4a 30 bf 2c 0b 77 3d
       0.49787474 -0.65908986 -0.68864286 0.06031339
000010 1c 55 21 3f ba 79 3d be 77 90 02 bf d5 0a c0 3e
       0.6302049 -0.18503466 -0.51001686 0.37508264

onnx::Conv_141 f4 [4]
000000 dc 93 c9 3c 0a 9e 05 3f 22 f1 d4 be fb f5 82 3e
       0.024606638 0.52194273 -0.4159022 0.25578293

onnx::Conv_143 f4 [6, 4, 3, 3]
000000 01 2b 61 39 7c 0e 78 3e b3 7e 03 3e 97 71 c6 bc
       0.00021473692 0.24224275 0.128413 -0.024224086
000010 45 06 02 3e 94 fe 4d 3d 72 0b 2f be 56 fc 05 3d
       0.12697704 0.050291613 -0.1709421 0.03271135
000020 33 65 b0 bd d5 e8 dd 3e 3b f3 26 3d 0a c1 87 3e
       -0.08613052 0.433417 0.040759306 0.26514465
000030 27 9d 2f 3e 76 e6 41 be a2 3b 57 be 4b b1 24 3c
       0.17149793 -0.1893557 -0.21018842 0.010052036
000040 2c 21 e2 3e 77 a8 68 be 53 b5 e3 3e 13 ca ad 3e
       0.44165933 -0.22720514 0.44474277 0.33943233
000050 a7 e2 c0 3d 2d 00 72 be 55 cc 04 3e 0c 6a 8f 3e
       0.094182305 -0.2363288 0.12968571 0.28010595
000060 27 94 75 bd b7 d3 93 3e af 1d 01 bd d7 39 8b 3d
       -0.059955742 0.28872463 -0.03152245 0.067981414
000070 fa b0 a8 3e 89 18 9c 3e 6f b7 29 3d 89 17 17 be
       0.32947522 0.3048747 0.0414347 -0.14755072
000080 63 06 93 bd db 7d 15 3e 7d d3 2e 3d df d2 42 3c
       -0.071789525 0.14598791 0.04268216 0.011891096
000090 a7 00 8f 3e 1c f0 36 bd 31 40 c9 3e 11 f3 70 be
       0.27930185 -0.04466258 0.39306787 -0.23530222
0000a0 42 0a a6 bd 0d 17 10 3e 7f 2b c7 be b4 50 92 3e
       -0.08107425 0.14071293 -0.38900372 0.28577197
0000b0 80 36 18 3e 26 e5 45 3e a9 e9 37 3c 37 ab 74 3e
       0.1486454 0.19325694 0.0112251425 0.23893438
0000c0 88 36 0d be cd 1e ab be b1 fe 97 3d 2b 21 b2 3e
       -0.13790333 -0.33421937 0.074216254 0.3479093
0000d0 fa d8 af be 02 8a 36 be b7 bc e1 be 53 9b 28 3e
       -0.34345227 -0.17826083 -0.4408929 0.16465501
0000e0 97 09 63 bd 5f f1 29 3e 0d 49 d8 bd a3 d5 43 3d
       -0.055429067 0.16595982 -0.10560808 0.04781116
0000f0 42 fb 5d be 98 dd c3 3e e7 ba 08 3f 3c 8a ef be
       -0.21677878 0.38255 0.5341019 -0.46785152
000100 02 df d3 3e a3 d4 b9 be dc 5b 5e bd 23 83 32 3e
       0.4138108 -0.3629504 -0.054286823 0.17432837
000110 89 28 68 3e 31 d9 0b be 1a f5 37 bd 4e 32 f4 3c
       0.22671713 -0.1365707 -0.04491148 0.029809143
000120 90 8b d8 3c 1a 8d 6e 3e 1d 45 1d 3e 94 72 8d be
       0.026433736 0.23296013 0.15358396 -0.2762648
000130 9b 92 0c be b2 96 a8 3d 53 0c 98 3d d3 d5 79 3e
       -0.137278 0.08231868 0.07424226 0.24397974
000140 d8 86 91 3e 9b 6d ff be 28 19 25 be 18 f1 2a 3e
       0.2842319 -0.4988831 -0.16122878 0.16693532
000150 96 a1 5c 3d 47 83 74 3e b4 93 64 3d 48 fa 28 3e
       0.053865038 0.23878203 0.055804923 0.16501725
000160 31 91 1d 3e 3b c1 32 3e aa 72 2e 3e 47 80 73 be
       0.15387417 0.17456524 0.17035928 -0.23779403
000170 61 57 9b be ca 38 cd be 4b 18 97 be 88 8a 13 3e
       -0.30340102 -0.4008239 -0.29510722 0.14408314
000180 4b 3f df bd ef d1 9c be bd a9 1f 3d 73 65 f0 bd
       -0.10900744 -0.30628917 0.038980234 -0.117381
000190 ca eb 82 be 0a d6 8e 3d c3 0c d9 bd 6f 2c df 39
       -0.25570518 0.069744185 -0.10598137 0.0004256698
0001a0 3e 80 f0 3e a8 cd f7 3d 5f 1f 9a 3d be 91 f2 3e
       0.4697284 0.12099773 0.07525515 0.47376817
0001b0 ec 6d 23 3d a7 74 34 be d9 6b 8b 3e e0 6c 47 be
       0.03989975 -0.17622624 0.2723072 -0.19475126
0001c0 e1 1e 80 be 96 7f d0 3c df 3a f8 bc 45 ad 91 3e
       -0.2502356 0.025451463 -0.03030151 0.28452507
0001d0 7a ed 4b 3e 3f 3a 72 be 47 5c 7a be a5 3a 1d bf
       0.19914809 -0.23655032 -0.24449264 -0.6141761
0001e0 65 72 8d be a6 0d a4 3d 98 b6 b4 be df 28 91 be
       -0.2762634 0.08010416 -0.35295558 -0.28351495
0001f0 fd f0 18 be 22 8a e2 be ea 9e 56 bd 9e a4 b4 3e
       -0.1493568 -0.44246012 -0.052397646 0.35281843
000200 44 0f c1 3e 63 0a 0d 3f dd 00 5c bd 67 a6 49 3e
       0.3770696 0.55093974 -0.05371176 0.19692384
000210 77 fb c8 bc ec a3 03 3f 9f 3d df 3e 8b 99 be be
       -0.02453397 0.51422 0.436017 -0.3722652
000220 f8 0b 8f 3e 14 1f 03 3f dd 2b 38 3e a4 5d 2c 3d
       0.2793882 0.51219296 0.17985483 0.04208149
000230 39 29 cd be c6 fb b9 3e 2c 9d cc bd 38 e4 1d be
       -0.40070513 0.363249 -0.09990916 -0.1541909
000240 98 5d c5 be 01 b6 51 3d 42 71 27 be ce 90 48 bd
       -0.3854797 0.051198963 -0.16351798 -0.04896622
000250 31 db d2 bd d2 35 cb 3d cb f0 13 be 1e 5c af be
       -0.10295714 0.09922375 -0.14447324 -0.34249967
000260 05 ce 0a 3e 56 05 24 3e e5 ed 12 be 5e 15 14 bf
       0.13555153 0.1601766 -0.14348562 -0.57845104
000270 61 67 a3 3e f3 14 31 be b8 e3 f9 bd e0 5b 44 3e
       0.3191481 -0.17293148 -0.12201637 0.19175673
000280 fb f0 56 be 71 0f 19 bd 0b 91 5d 3e 6c 1d b5 3e
       -0.20990364 -0.03736824 0.21637361 0.3537401
000290 8c e7 be 3e 62 11 60 3d 5e a4 f4 3e 0f 3a 9b 3e
       0.3728603 0.054704078 0.47781652 0.30317733
0002a0 76 de e2 3e 46 4e 81 be b0 9a a4 3e 6e 06 1b be
       0.4431035 -0.2525503 0.32149267 -0.15139171
0002b0 f0 69 97 be 26 ef 9d bd 26 61 d0 bc 2a e9 07 3f
       -0.2957301 -0.077116296 -0.025436949 0.53090155
0002c0 6d 17 9b 3e 2b 6f db bd 3d d4 c4 bc 71 9f b5 bd
       0.3029131 -0.10714563 -0.024026984 -0.08868302
0002d0 49 76 8b bc c0 4a 1d 3e 9d 7c 70 be 73 ce 64 be
       -0.017024176 0.15360546 -0.23485036 -0.22344379
0002e0 b6 68 d5 bd f9 6d 03 be cc ab 81 bd 2d 26 83 3c
       -0.10420363 -0.1283492 -0.06331596 0.016009415
0002f0 fd fa 30 be 59 3e f9 3d 00 e4 73 3e 18 bb 60 3d
       -0.17283244 0.12170095 0.23817444 0.054865927
000300 66 22 35 be b4 de 45 be 51 8e 15 be 4c b9 8b 3e
       -0.17688903 -0.19323236 -0.1460507 0.27289808
000310 95 5d a7 bd e7 a4 8c bc d8 2c 0a bd 58 aa a4 3d
       -0.08172146 -0.017168475 -0.033734173 0.08040303
000320 04 63 99 3d bd 01 12 3e c7 95 96 be 55 34 41 bd
       0.07489589 0.14258476 -0.29411146 -0.04716905
000330 87 ce 10 3e 27 70 43 be bd b6 b7 be a0 c3 db be
       0.14141284 -0.19085751 -0.35881606 -0.42922688
000340 67 de 00 bf ec a1 06 bf 35 89 4c be 6d ed 0d be
       -0.5033936 -0.52590823 -0.19974215 -0.13860102
000350 13 68 0a bf 6b 72 37 be b4 41 2c be 4c 56 6e bd
       -0.54065055 -0.1791474 -0.16821939 -0.058187768

onnx::Conv_144 f4 [6]
000000 0c 51 14 bf cd 41 ac be 6a b8 69 be 3d 72 75 be
       -0.5793617 -0.33643952 -0.22824255 -0.2396936
000010 ed e5 92 be 92 68 b6 3f
       -0.28691044 1.4250662

onnx::Conv_146 f4 [6, 6, 3, 3]
000000 d1 dd 0e bf db 6a 88 be d0 3e 09 be 09 5a d4 bd
       -0.55807215 -0.26644024 -0.13402867 -0.10368735
000010 df 63 40 3e a9 e7 17 3e 7b d0 08 3e 59 81 fa bd
       0.18788098 0.14834465 0.13360779 -0.12231702
000020 c3 fe 6d 3e c5 f7 2e be cb 20 98 be cb 1b b3 be
       0.23241715 -0.17086704 -0.2971252 -0.34982142
000030 4a ad 82 be fa b0 af be fe 84 6a be 46 62 7d 3c
       -0.25522834 -0.3431471 -0.22902295 0.015465325
000040 30 61 57 3d cc 8a ab 3e c2 e1 0c be 9f c0 e1 3d
       0.05258292 0.3350433 -0.13757995 0.11023068
000050 06 af aa bd 53 81 27 3c fe 4f 98 be fd 1e 5f bd
       -0.08334164 0.010223704 -0.2974853 -0.054472912
000060 3f 3d 81 be a5 2b bb be 3e 7d 24 bd 85 26 af 3e
       -0.2524204 -0.36556736 -0.040158503 0.34209076
000070 3b d6 d0 3d d6 2e ab 3e 9b 9f 77 3d 32 c2 9a be
       0.10197111 0.3343417 0.060454946 -0.30226284
000080 f6 27 c7 bc 9a 14 a5 3e 78 7f ef 3d 20 4c 02 3d
       -0.024311047 0.3224228 0.116942346 0.03181088
000090 29 96 0f 3f 65 fd b8 3e 14 1e 12 3f 80 82 4b 3d
       0.560885 0.36130825 0.57077146 0.049685
0000a0 5d f8 0f be 8e e5 b4 bd 1e 2c 94 3e c9 b2 d7 3e
       -0.14059587 -0.088328466 0.2893991 0.4212859
0000b0 ff 48 b4 3e f8 a5 ad 3e 69 fa cf 3c cc 01 69 3e
       0.35211942 0.33915687 0.02538796 0.22754592
0000c0 e3 eb ab 3e d4 86 d7 3e 64 e0 d8 bd b6 78 ad be
       0.33578405 0.42095053 -0.10589674 -0.33881158
0000d0 cd 0b f5 3d 6e 19 29 3e 43 24 34 3e 85 9c d5 3d
       0.119651414 0.16513607 0.17591958 0.10430244
0000e0 f0 bc 2f 3e 81 32 d4 3d 91 67 6e 3e 23 80 1c b9
       0.17161918 0.10361195 0.23281695 -0.00014925054
0000f0 7e fe d2 3d 7e e0 ec bc 9e 83 71 3e 0d 7d 74 bc
       0.10302447 -0.02891564 0.23585364 -0.014922393
000100 7b 4d 8a bb c3 3a 3d 3e 5d 07 06 3e 39 0d 2b be
       -0.004220662 0.18479447 0.13088746 -0.16704263
000110 94 68 97 3e b0 94 7f 3e bc 04 89 be 35 e2 c5 3e
       0.29571974 0.24959064 -0.26761425 0.38649145
000120 34 3a 58 bd 11 99 80 be 3c 6c 8d be 8b f6 ea bb
       -0.05278988 -0.2511678 -0.2762164 -0.0071705035
000130 24 3a ec bd c2 80 cb bc 24 c7 e4 3c bb e7 03 bf
       -0.11534527 -0.02484167 0.027926989 -0.5152547
000140 62 36 57 3d e8 f1 34 3f 02 42 02 be a9 a2 bf 3e
       0.052542098 0.7068162 -0.12720492 0.37428787
000150 e4 21 c2 3e bd 8d d0 3d b3 86 c5 3e 3a ab 2c 3f
       0.37916481 0.101832844 0.3857933 0.6744877
000160 b4 80 84 3e af 49 ae 3e a8 45 d8 3d 5d 12 01 3e
       0.25879443 0.3404059 0.10560161 0.12604661
000170 1a e3 57 be 02 03 c3 3d 86 da e0 bc 45 74 8c bd
       -0.21082726 0.09522058 -0.02744795 -0.06858114
000180 6e 8f f7 be 72 07 28 3e 34 17 10 bc 46 36 d6 3e
       -0.48351616 0.1640909 -0.008794595 0.41838282
000190 53 d5 ad be cd 43 da be d7 0b bc 3d f3 05 47 be
       -0.33951816 -0.42629853 0.09181946 -0.19435863
0001a0 d7 b0 b9 be 64 00 1c be 6c 52 a7 bc f0 d2 6d be
       -0.3626773 -0.15234524 -0.020425044 -0.23224998
0001b0 7d d5 03 bf b1 39 61 bd 77 5a cd be 37 2e d7 bd
       -0.5149763 -0.05498666 -0.40108082 -0.10506862
0001c0 61 a9 44 be 01 55 c5 bd ef d0 36 be f2 63 01 be
       -0.19205238 -0.09635354 -0.1785314 -0.12635782
0001d0 7f 73 5a be 31 d6 5b 3e ef 93 36 3e 8c 15 b5 3d
       -0.21333121 0.21468426 0.1782987 0.08842
0001e0 d1 a3 bd 3e 63 0f c5 3d ec ba 02 3e 95 18 25 3e
       0.37039044 0.096220754 0.12766618 0.16122659
0001f0 9e e9 88 3e 3c a4 9d be e5 64 97 bd d0 7c 14 bd
       0.26740736 -0.30789363 -0.07392291 -0.036251843
000200 e0 6c 2c be f1 ad cd bd 95 6b 81 3e 3d 76 11 3c
       -0.16838408 -0.10042942 0.2527739 0.008878288
000210 2b ca 84 bd 8d 39 d8 3d 57 50 a3 bd 83 6a b0 bd
       -0.06483873 0.10557852 -0.07974308 -0.086140655
000220 c8 ce 22 be bf eb ab be 79 20 5b bd bb fe 6b 3d
       -0.15899193 -0.33578297 -0.053497765 0.057615977
000230 3c e2 05 bf fa fd 62 3d 1c 49 8b be 2e 72 98 be
       -0.5229833 0.055417992 -0.27204216 -0.29774612
000240 62 bd 0e 3f fa f1 ca bc ec 15 a4 3e fd 61 aa 3e
       0.55757725 -0.024773587 0.32047975 0.33277884
000250 a0 b8 9c bd b4 3a a4 3e 4f 36 d6 3e 40 13 0b 3f
       -0.07652402 0.32076037 0.4183831 0.5432625
000260 29 56 a3 3e 74 49 5e 3f 8b 9f 4c 3f e1 68 18 3f
       0.31901672 0.8683083 0.79930943 0.5953503
000270 c1 44 df 3e 42 eb ff bc b7 e7 f9 3e 49 63 53 bd
       0.43607143 -0.03124011 0.48809597 -0.051608358
000280 7f e7 8b 3e 20 2b c1 3e d8 ce 31 be d3 65 7f bc
       0.27325055 0.37728214 -0.17364061 -0.015588242
000290 d3 f0 01 3d 6d 96 9e 3e 24 8b ea 3d 01 94 6c be
       0.03172381 0.3097414 0.1145232 -0.23103334
0002a0 7f f8 d3 3d 22 fd c5 bd 36 16 eb bc 6e 48 b1 3d
       0.10350131 -0.09667422 -0.028697114 0.08656393
0002b0 ff 49 ab bd 92 37 1b bd 67 80 64 3e 6d 92 85 3e
       -0.08363723 -0.037894793 0.22314607 0.26088277
0002c0 ae 2b 6a bd 0c a9 24 be f2 c9 3b 3d 3e 0d 1d bd
       -0.057170562 -0.16080111 0.045846887 -0.038342707
0002d0 e4 04 8f 3e fc 38 af bd fb 26 e0 3e af c3 89 3e
       0.2793342 -0.08555791 0.4377974 0.26907107
0002e0 6a 18 a0 3e 85 c7 a1 3e fc 6d e0 3e 7e 98 f7 3e
       0.31268626 0.31597534 0.4383391 0.4835853
0002f0 ad 73 de 3e f6 f4 58 3d 35 d9 b1 be 38 81 88 bb
       0.4344763 0.052967988 -0.34736028 -0.0041657947
000300 5b 73 93 be bc d5 09 be ca c9 49 be 00 94 05 be
       -0.28798947 -0.1346044 -0.19705883 -0.13044739
000310 15 f3 a3 bd e6 ce 8a be 62 5a cf bc 80 c9 58 be
       -0.080053486 -0.27110976 -0.025311653 -0.21170616
000320 05 10 02 be 2d 23 99 be 98 75 75 3d 20 65 88 3d
       -0.12701423 -0.2990965 0.0599266 0.06659913
000330 d2 0d cb bd 1f 27 58 3c e1 cd 33 be 8a 2f 6c be
       -0.099147454 0.013192921 -0.17559005 -0.2306501
000340 5d cd b7 bd 1e d5 19 3d b3 82 a6 be 39 9b ca bd
       -0.08974717 0.03755676 -0.3252159 -0.098928876
000350 46 50 43 be 09 2c a2 bd dd 51 97 3e 29 da 80 3e
       -0.1907359 -0.07918555 0.29554644 0.25166443
000360 48 13 c6 3e f8 96 c4 3e f9 47 7c 3e b0 1b 7c 3d
       0.38686585 0.3839643 0.2463683 0.061549842
000370 fd 6f b2 3d f2 37 0c be 54 d7 bb 3e cf 16 a0 3e
       0.08712766 -0.13693216 0.3668772 0.31267402
000380 a5 27 a4 3e 0a 20 ab bd 0b ec cc 3d c5 55 2f 3e
       0.32061496 -0.0835572 0.10005959 0.17122562
000390 6b 85 2a 3e 31 44 03 3e 1d f8 65 be 23 32 12 3e
       0.16652457 0.12818982 -0.22457929 0.14276938
0003a0 cd 0f 81 bd 62 ad 0a 3f 3c d6 df 3d c9 0a f5 be
       -0.06301842 0.5417081 0.10929534 -0.4785979
0003b0 f7 46 92 bc ca 21 1e 3e 16 78 6a be 98 ca a9 bb
       -0.017856104 0.15442577 -0.22897372 -0.0051816218
0003c0 38 6a 0e be 93 e9 13 3d 27 c5 b0 be d7 6d 20 3f
       -0.13907707 0.036111426 -0.34525415 0.626676
0003d0 0e b9 90 3e df b3 05 3f a8 55 92 3e 0d 6c 7c 3e
       0.28266186 0.52227587 0.28580976 0.24650593
0003e0 4b 38 c0 3e 8b fd c5 3e 95 fe 80 3d 76 aa 38 3e
       0.37542948 0.3867 0.06298558 0.18033776
0003f0 16 a3 28 bd 56 95 0d be 17 16 75 bd a1 81 da bb
       -0.041171156 -0.13826498 -0.05983552 -0.006668285

onnx::Conv_147 f4 [6]
000000 14 a1 be be 20 e1 4d be 62 0e 72 bf 9c d0 10 3d
       -0.37232268 -0.2010541 -0.94553196 0.035355195
000010 9d 97 30 bf dd 18 1d be
       -0.68981344 -0.15341516

onnx::Conv_149 f4 [6, 4, 1, 1]
000000 04 21 39 be bd dd 84 3e 43 47 ef be d8 cf b0 bf
       -0.18079 0.25950423 -0.46734056 -1.3813429
000010 c7 a1 5f 3f b4 0b 75 3e 7c 04 9b 3f 24 a6 b7 bf
       0.8735623 0.23930246 1.2110744 -1.4347577
000020 6a d8 1e c0 9f 1b 07 c0 c2 74 fe 3d 6d 6c ca 3f
       -2.4819589 -2.1110609 0.124246135 1.5814339
000030 97 09 3f 3f 61 7e 1e 40 08 4f 58 bf 4a c9 28 bf
       0.7462401 2.4764636 -0.8449559 -0.6593214
000040 94 64 bc 3f 35 2f 72 bf e7 41 96 3c 83 50 20 bf
       1.4718194 -0.9460328 0.018341972 -0.6262285
000050 a7 2b 0b bf 18 00 c5 3f 1c 92 22 bf 7d 86 df 3e
       -0.54363483 1.5390654 -0.63504195 0.43657294

onnx::Conv_150 f4 [6]
000000 78 8b 84 3f e9 39 89 3e 14 df 03 3f c0 7d e3 bd
       1.0355062 0.26801994 0.51512265 -0.11107969
000010 0d 2d 10 3f d3 b2 78 be
       0.5631874 -0.24286966
